05-1. model.pth (torch, 817654 bytes, 16 tensors)

layer1.0.weight f4 [16, 1, 5, 5]
0	0xbdb4bb5d	-0.08824799
1	0x3a7b504e	0.00095868565
2	0x3c07abf5	0.008280744
3	0x3defc31a	0.117071345
4	0xbe9f1c91	-0.31076482
5	0xbe65a708	-0.22426999
6	0xbab3c3e0	-0.0013714992
7	0x3e3f95bf	0.18709467
8	0x3dbb00dd	0.09131024
9	0xbe244d64	-0.16045147
10	0xbe8be978	-0.2732656
11	0xbe0ac517	-0.13551746
12	0x3e03a883	0.12857251
13	0x3d5a1a28	0.0532476
14	0x3d366a90	0.04453522
15	0xbdbb9cfc	-0.09160802
16	0xbc8b1d89	-0.016981857
17	0x3e07bc72	0.1325548
18	0xbe163a44	-0.14670664
19	0xbd90c02d	-0.070679046
20	0xbdb90dc5	-0.090358295
21	0x3d9263cb	0.0714794
22	0x3d96eddc	0.07369587
23	0xbcf65f56	-0.030074757
24	0x3e0c70e7	0.13714944
25	0xbce5ce45	-0.028052459
26	0xbe7a6f8c	-0.24456614
27	0xbbe9ccd6	-0.007135014
28	0xbe695d7e	-0.2278957
29	0xbd25b923	-0.040459763
30	0x3e1ec9fa	0.15506735
31	0x3dd9cb59	0.106344886
32	0x3e13689d	0.14395376
33	0x3e299f1f	0.16564606
34	0x3e603f0f	0.21899055
35	0xbdbdf603	-0.09275439
36	0x3e30d0dc	0.17267174
37	0x3d3c2941	0.04593778
38	0x3c2b78fc	0.010465857
39	0xbd213066	-0.039352797
40	0x39a5581a	0.00031536893
41	0xbe4bba0c	-0.1989519
42	0xbe0b7c7d	-0.13621707
43	0x3dcce4e6	0.100045964
44	0xbcfceeb4	-0.030875541
45	0xbdb344ac	-0.087533325
46	0x3d6e345d	0.058155406
47	0xbe009ddd	-0.1256022
48	0xbe54cae5	-0.20780523
49	0xbe547e79	-0.2075137
50	0x3daa64f1	0.08320034
51	0xbca3b18d	-0.019982124
52	0x3c64e0d1	0.013969616
53	0x3d2f2248	0.042757303
54	0xbd21f15e	-0.039536826
55	0x3b519cab	0.003198425
56	0xbba81aa5	-0.0051301294
57	0xbd316b9b	-0.04331551
58	0x3d131947	0.03591278
59	0xbda4613f	-0.08026361
60	0xbde33043	-0.110931896
61	0xbdaab334	-0.083349615
62	0x3e838b62	0.25692278
63	0xbc2e71e0	-0.010647267
64	0xbe249fd6	-0.16076598
65	0xbe6958c5	-0.22787769
66	0x3db1ce1e	0.08681892
67	0x3e8f9e95	0.28050676
68	0xbd8bb767	-0.068220906
69	0xbe16089c	-0.14651722
70	0xbe34672c	-0.17617482
71	0x3d6cb5a0	0.0577904
72	0xbd758f18	-0.059950918
73	0x3e4b4c53	0.19853334
74	0xbde1e7fc	-0.11030576
75	0xbcd60747	-0.026126517
76	0x3e43fc6a	0.19139257
77	0x3e160b94	0.14652854
78	0xbe1f77cd	-0.15573044
79	0x3c6a4340	0.01429826
80	0x3d942dbc	0.07235286
81	0x3c26c4ee	0.010178788
82	0x3e4034e5	0.18770178
83	0x3d196a5f	0.03745496
84	0xbe1b8cae	-0.15190384
85	0xbe5b1c79	-0.2139758
86	0xbda8b31c	-0.082372874
87	0x3d68ba77	0.05681845
88	0x3e80c8dd	0.25153247
89	0x3d8e86dd	0.06959317
90	0xbe78b568	-0.24287951
91	0xbe83e142	-0.25757796
92	0xbd9e6bc6	-0.077354
93	0xbd65bc83	-0.056087982
94	0x3d2dbc58	0.042415947
95	0x3dc88847	0.09791618
96	0x3db86859	0.09004278
97	0xbe368b4b	-0.17826574
98	0xbd6a2a71	-0.05716938
99	0x3be99fec	0.00712966
100	0x3d5867a6	0.05283322
101	0xbdae89bf	-0.08522367
102	0x3c9f423c	0.019440763
103	0xbdc6d776	-0.09709065
104	0x3e5251c3	0.20539002
105	0xbd17db91	-0.03707463
106	0xbd9f7a2b	-0.077869736
107	0xbe616787	-0.22012149
108	0xbe10b2ee	-0.14130756
109	0xbdd8ce96	-0.10586278
110	0x3e5eef02	0.21770862
111	0x3e1681d4	0.14697963
112	0x3b25dab5	0.0025307362
113	0xbe02336c	-0.12714928
114	0xbe3f7a04	-0.18698889
115	0xbdf6c3a1	-0.12049032
116	0x3df36f1c	0.11886427
117	0x3e56ee97	0.20989452
118	0xbca7df4b	-0.020492217
119	0xbd8dcadf	-0.0692346
120	0x3d1ea7bd	0.038734186
121	0x3b70e550	0.0036757775
122	0x3e5fef7d	0.21868701
123	0x3d21e2c7	0.039522912
124	0x3e0e7a84	0.13913924
125	0x3d816401	0.06317902
126	0x3dd6a5c9	0.1048084
127	0xbe988df9	-0.29795817
128	0xbe33f525	-0.17573984
129	0x3dbfbd45	0.09362272
130	0xbc2e546f	-0.010640248
131	0xbe2ee1a7	-0.17078267
132	0xbe443fc6	-0.19164953
133	0xbd1c8b81	-0.03821898
134	0x3e5967ac	0.21230954
135	0x3a842b79	0.0010083757
136	0xbe8e8683	-0.27837
137	0x3c949553	0.01813761
138	0x3d7354d3	0.059407067
139	0x3d0db776	0.03459879
140	0xbd0e64fb	-0.03476427
141	0xbde5c111	-0.11218465
142	0xbd69248a	-0.056919612
143	0xbd9d2ce7	-0.0767458
144	0x3e7cf42e	0.24702522
145	0xbe2a66ca	-0.16640773
146	0xbdd6b94a	-0.1048456
147	0x3d0944ca	0.033512868
148	0xbe182bfa	-0.14860526
149	0x3e165a4d	0.14682885
150	0xbdbc0e17	-0.09182375
151	0xbe50eb24	-0.20402199
152	0x3d75a992	0.059976168
153	0x3e5ed5e8	0.21761286
154	0x3d5e5d92	0.054288454
155	0xbe456492	-0.19276646
156	0xbdcac2b8	-0.09900421
157	0x3e8c0954	0.27350867
158	0xbc7d233b	-0.015450294
159	0xbc7b9ee7	-0.0153577095
160	0x3c8fc175	0.017548302
161	0x3dd43f50	0.103636384
162	0xbd4956b4	-0.049154952
163	0xbc6cd5c0	-0.014455259
164	0xbe01a2fb	-0.12659828
165	0xbdb4a35a	-0.08820219
166	0x3cdfbe31	0.02731237
167	0xbea4feea	-0.32225734
168	0x3dcbeb83	0.0995703
169	0x3d81b8ff	0.06334113
170	0xbdf8e6e8	-0.12153417
171	0xbe8608e1	-0.2617865
172	0xbdbb9e99	-0.091611095
173	0xbd107bc5	-0.035274286
174	0x3dbdee0a	0.09273918
175	0xbcac47f6	-0.021030407
176	0x3e4217fa	0.18954459
177	0x3e0ed55d	0.13948579
178	0xbb6bc085	-0.0035972905
179	0x3c9fcdf0	0.019507378
180	0x3dec2d12	0.11532034
181	0x3de328cd	0.110917665
182	0xbe0c339e	-0.13691565
183	0xbe0d4302	-0.13795093
184	0xbe1386f3	-0.14406948
185	0x3db685a0	0.08912206
186	0xbe83cf9b	-0.25744328
187	0xbe167bb9	-0.14695634
188	0xbd919dc2	-0.07110168
189	0x3e095a70	0.13413405
190	0xbdf62d19	-0.120203204
191	0xbe3cc72f	-0.18435358
192	0x3b86e5c2	0.0041167447
193	0x3de260a0	0.11053586
194	0x3e2b3ef5	0.16723235
195	0xbd88cccd	-0.06679688
196	0x3e04ba91	0.12961794
197	0x3e09f35e	0.13471743
198	0x3dbc2ea0	0.091885805
199	0xbde31ed7	-0.110898666
200	0x3e176666	0.14785156
201	0x3c4610e5	0.012088989
202	0x3e44db01	0.19224168
203	0xbdbf8865	-0.09352187
204	0x3e4b03f4	0.19825727
205	0xbd9ee18c	-0.077578634
206	0xbd93f90e	-0.07225238
207	0x3d7aca05	0.061227817
208	0x3e5c722e	0.21527931
209	0x3e3de82d	0.185456
210	0xbd8df7dd	-0.06932042
211	0xbe35764d	-0.1772091
212	0x3c52b137	0.012859634
213	0xbdc880e4	-0.09790209
214	0x3d431070	0.047623098
215	0xbdb5f9b6	-0.08885519
216	0xbe589ef5	-0.21154387
217	0xbe5d194e	-0.21591684
218	0xbe5ea26d	-0.21741648
219	0xbdb2c117	-0.08728235
220	0xbe209d3f	-0.15684985
221	0xbe50c904	-0.20389181
222	0xbd8f40b0	-0.0699476
223	0xbe31fc66	-0.17381439
224	0xbd9e0812	-0.07716383
225	0xbd845ceb	-0.06463035
226	0x3d5b2b18	0.053507894
227	0xbe2b9827	-0.1675726
228	0xbda80c8c	-0.08205518
229	0x3e1b0aec	0.15140885
230	0xbda4db14	-0.08049598
231	0xbe3b6b9f	-0.18302773
232	0xbdc7bd9f	-0.09752964
233	0x3e3ecc17	0.18632542
234	0x3ce1101a	0.027473498
235	0xbdd93126	-0.106050774
236	0xbe3da85d	-0.18521257
237	0xbdff43d4	-0.12464109
238	0x3e835e42	0.2565785
239	0x3d071af0	0.032984674
240	0xbe64f7bb	-0.22360127
241	0xbdb9b8f3	-0.090684794
242	0x3e5a3ada	0.21311513
243	0x3e693ed5	0.22777875
244	0xbdcbff1a	-0.09960766
245	0x3c85f7a8	0.016353443
246	0xbe0f8e76	-0.14019188
247	0x3e45e785	0.19326599
248	0xbe2e6d75	-0.17033942
249	0x3b780e20	0.0037850216
250	0x3e6cc315	0.23121293
251	0xbbbc00fd	-0.0057374225
252	0xbe29e909	-0.16592802
253	0xbe1932f9	-0.14960851
254	0x3db47853	0.088120125
255	0x3db23151	0.087008126

layer1.0.bias f4 [16]
0	0x3dc35079	0.09536833
1	0xbbb96321	-0.005657569
2	0xbc576b47	-0.0131481355
3	0x3e8655dc	0.2623738
4	0xbce02bc2	-0.027364615
5	0xbe1c807b	-0.15283386
6	0xbe29d975	-0.1658686
7	0x3db79a1f	0.08964943
8	0x3d56d640	0.05245042
9	0x3d64a86c	0.055824682
10	0xbd68258f	-0.056676444
11	0xbde3b053	-0.111176156
12	0xbe70efdf	-0.23529004
13	0x3e05f0cf	0.13080142
14	0x3d667579	0.056264374
15	0x3d23cdc2	0.039991148

layer1.1.weight f4 [16]
0	0x3f60be22	0.8779012
1	0x3f915fb9	1.1357337
2	0x3f765fcd	0.9623993
3	0x3f8a3d6e	1.0799997
4	0x3f8dfd60	1.1092949
5	0x3f89fe9a	1.0780823
6	0x3f7b90a2	0.9826757
7	0x3f95c922	1.1702006
8	0x3f94957c	1.1608119
9	0x3f6abe03	0.91696185
10	0x3f019537	0.5061831
11	0x3f4bf4b2	0.7967025
12	0x3f91ed03	1.1400455
13	0x3f31f8e6	0.69520414
14	0x3f7e9b96	0.99456155
15	0x3f1963ed	0.599181

layer1.1.bias f4 [16]
0	0xbeb33fe2	-0.35009676
1	0xbe5fda21	-0.21860553
2	0xbedb8b3a	-0.4287966
3	0xbe679c85	-0.22618301
4	0xbe44e511	-0.19228007
5	0xbe460c1c	-0.19340557
6	0xbe45a63e	-0.19301698
7	0xbe52aa1f	-0.20572709
8	0xbd7f562b	-0.062338036
9	0xbe82e140	-0.25562477
10	0xbf059fc3	-0.521969
11	0xbebb283c	-0.36554134
12	0xbdc59feb	-0.096496426
13	0xbec2e654	-0.3806635
14	0xbdfbd0b2	-0.12295665
15	0xbf072a7f	-0.5279922

layer1.1.running_mean f4 [16]
0	0x3c725771	0.0147913555
1	0xbd96be1e	-0.07360481
2	0xbd342323	-0.04397882
3	0x3e6b8f03	0.23003773
4	0xbc7683a5	-0.015046035
5	0xbe834a2a	-0.2564252
6	0xbe83d3dd	-0.25747576
7	0x3dc11f99	0.09429855
8	0xbda99d17	-0.08281916
9	0xba5ace2c	-0.0008346762
10	0x3d81f5c2	0.06345703
11	0xbdc5e9ad	-0.09663711
12	0xbeb59960	-0.35468578
13	0x3e639d7d	0.22228046
14	0x3d173b9a	0.036922075
15	0x3e9ea582	0.30985647

layer1.1.running_var f4 [16]
0	0x3d22b1c2	0.039720304
1	0x3d07d28b	0.033159774
2	0x3ca28bb6	0.01984201
3	0x3cf017c0	0.0293082
4	0x3cfccd9a	0.030859757
5	0x3dc2b9d9	0.09508104
6	0x3d5dc02c	0.054138348
7	0x3cd383a7	0.025819613
8	0x3e0cbe44	0.13744456
9	0x3d8c2d6e	0.068446025
10	0x3d43ccfe	0.047802918
11	0x3ccadcee	0.02476355
12	0x3df54b5b	0.119772635
13	0x3d015f95	0.031585295
14	0x3dbabac9	0.09117658
15	0x3e5ab652	0.21358612

layer2.0.weight f4 [32, 16, 5, 5]
0	0xbd8f0bb5	-0.06984655
1	0xbd7511eb	-0.05983154
2	0x3d282a50	0.041055977
3	0xbb5298eb	-0.0032134603
4	0x3d92f35e	0.07175325
5	0x3d5845ae	0.052800827
6	0x3d83a088	0.06427103
7	0x3d966338	0.07343143
8	0xbdb21d9e	-0.08697055
9	0xbcdbacb6	-0.026815753
10	0x3c5c515e	0.013447134
11	0x3d96dd04	0.07366374
12	0x3ccbcc18	0.024877593
13	0xbd8183cb	-0.06323966
14	0xbd9ab9c3	-0.075549625
15	0xbd2fbd97	-0.042905416
16	0x3c300a7d	0.010744688
17	0x3c728b3d	0.014803705
18	0x3c9ad540	0.018900514
19	0x3d67dad4	0.056605175
20	0xbce97a70	-0.028500766
21	0xbdaae1b6	-0.08343832
22	0xbd82b71b	-0.06382581
23	0xbd8bb3a7	-0.06821375
24	0xbd120749	-0.03565148
25	0x3d18b7e5	0.03728475
26	0x3d49923f	0.049211737
27	0xbd4c8de4	-0.049940005
28	0xbbbbb925	-0.005728858
29	0x3d38f904	0.045159355
30	0x3d1d3a43	0.03838564
31	0xbce707c5	-0.028201947
32	0xbd886ead	-0.06661735
33	0xbd71385f	-0.05889165
34	0x3d33e906	0.0439234
35	0xbd040c30	-0.032238185
36	0x3d28167c	0.041037068
37	0xbb8935a4	-0.0041873027
38	0xbd0f1296	-0.034929834
39	0x3b9c6d20	0.004773751
40	0x3d936d3f	0.071985714
41	0xbc8e0141	-0.017334582
42	0xbd3f1ce7	-0.046658423
43	0xbca21643	-0.019786006
44	0xbdb67fc0	-0.08911085
45	0x3d8cac75	0.06868831
46	0x3dcb5327	0.099279694
47	0x3bc26fe8	0.0059337504
48	0x3d451c99	0.048122976
49	0x3e080c9e	0.13286063
50	0xbd7d467b	-0.061834794
51	0xbb7b66d4	-0.003836085
52	0x3d4c940f	0.049945887
53	0xbe14802e	-0.14502022
54	0xbd499b38	-0.049220294
55	0xbc3fd24a	-0.011707852
56	0x3d2aeb06	0.041728042
57	0x3dd7efbd	0.10543773
58	0x3d160af2	0.036631532
59	0x3c1e27d4	0.00965305
60	0xbd4292b7	-0.0475032
61	0x3d23b19e	0.03996431
62	0xbda7e3d5	-0.081977524
63	0x3d28070e	0.041022353
64	0x3c25bbb2	0.010115551
65	0xbd48bcd1	-0.049008194
66	0x3cedc516	0.029024642
67	0xbd430933	-0.047616195
68	0xbd9b8ccd	-0.07595215
69	0xbcbb3abe	-0.022855159
70	0xbcb9ddc2	-0.02268875
71	0xbd9daf9d	-0.07699511
72	0xbdc33d3b	-0.09533163
73	0xbda3e360	-0.08002353
74	0xbd593158	-0.053025573
75	0x3dcc7aa8	0.09984332
76	0x3d91cc8b	0.071190916
77	0x3c9dad1e	0.019247588
78	0x3bbee237	0.0058253068
79	0x3d1178ff	0.03551578
80	0x3ddf0982	0.10890485
81	0x3c952613	0.018206632
82	0xbc767d72	-0.015044557
83	0xbd926745	-0.07148603
84	0x3d685bfc	0.056728348
85	0xbd47fecc	-0.048826978
86	0xbe18cc1d	-0.14921613
87	0xbe1766af	-0.14785264
88	0xbd485177	-0.048905816
89	0x3cc168eb	0.0236096
90	0xbc90a795	-0.017658034
91	0xbda101dc	-0.07861683
92	0x3c0d58ba	0.008627111
93	0xbd3230a3	-0.043503415
94	0x3cddd57d	0.027079338
95	0x3d243ba6	0.040095948
96	0x3dbf524f	0.09341871
97	0xbd28f29c	-0.041246995
98	0xbd27a8f8	-0.040932626
99	0x3d4c7449	0.049915586
100	0x3d33fab5	0.043940265
101	0x3ddfbdd1	0.109248765
102	0x3d9bb72d	0.076032974
103	0x3cecd39c	0.028909497
104	0x3da4719c	0.08029482
105	0xbd750615	-0.059820253
106	0xbdaa73b9	-0.083228536
107	0xbdc5e962	-0.09663655
108	0xbc5e790b	-0.013578664
109	0xbdb8e5f8	-0.09028238
110	0xba76c065	-0.00094128243
111	0xbdd9cebd	-0.10635135
112	0xbe350d07	-0.17680751
113	0xbddeacba	-0.10872789
114	0xbe1432c0	-0.14472485
115	0xbd3e7d61	-0.04650629
116	0xb9ff0375	-0.00048639966
117	0xbc0672d0	-0.008206084
118	0xbbb85342	-0.0056251595
119	0x3cb173e9	0.021661716
120	0xbd408fa2	-0.04701198
121	0xbcbbfc58	-0.022947475
122	0x3d47ff20	0.04882729
123	0xbd40ef8f	-0.04710346
124	0x3d8dfb83	0.06932738
125	0xbd5c843c	-0.053837046
126	0xbca236d0	-0.019801527
127	0xbda6fc98	-0.08153647
128	0xbd8537e4	-0.06504801
129	0xbce4a069	-0.02790852
130	0x3ca71dcd	0.020399952
131	0x3cf54bd4	0.029943384
132	0xbb5851c8	-0.003300773
133	0x3aebd2e5	0.0017991929
134	0xbd2d1191	-0.04225308
135	0xbcd78405	-0.026308069
136	0x3d365bc4	0.04452111
137	0x3d828bae	0.06374298
138	0x3d08e973	0.03342576
139	0xbd9e37f8	-0.07725519
140	0xbd16352c	-0.036671802
141	0x3dca30b9	0.09872574
142	0x3df07037	0.11740153
143	0x3d77af92	0.06047017
144	0x3d035c46	0.03207042
145	0xbdae88f8	-0.085222185
146	0x3c9059aa	0.01762088
147	0xbd32f81d	-0.04369365
148	0x3d0cbb0d	0.034358073
149	0x3ce2dd85	0.02769352
150	0xbd1e25df	-0.038610335
151	0xbd004421	-0.031314973
152	0xbdd8d75a	-0.1058795
153	0xbd8700cd	-0.065919496
154	0x3cb86f85	0.022514114
155	0x3dfeb0a7	0.124360375
156	0xbce3baa7	-0.027798964
157	0xbe371489	-0.17878927
158	0x3c01a8a2	0.00791374
159	0xbc8b7825	-0.017025063
160	0xbd178271	-0.036989633
161	0xbda3012e	-0.079592094
162	0x3cdce956	0.026966732
163	0xbc9c73d8	-0.019098207
164	0x3da19e9e	0.07891582
165	0x3b93668c	0.0044983085
166	0x3cd2527c	0.025674097
167	0x3cd493c6	0.02594937
168	0xbc53e2df	-0.012932508
169	0xbb3b35a2	-0.0028565903
170	0xbc27aa40	-0.010233462
171	0xbcc99d69	-0.024611192
172	0x3be542ab	0.006996473
173	0xbd168594	-0.036748484
174	0xbd76e207	-0.06027415
175	0x3d977981	0.07396222
176	0xbd38c796	-0.045112215
177	0xbde243b2	-0.11048068
178	0xbdd929a9	-0.10603649
179	0xbe068162	-0.13135293
180	0x3d1a4f94	0.037673548
181	0xbc1b9e71	-0.009498225
182	0xbd9794d3	-0.07401433
183	0xbe0e9a59	-0.13926066
184	0xbd50a824	-0.0509416
185	0x3dea688e	0.114457235
186	0x3ce543ef	0.027986495
187	0x3d1a9a08	0.037744552
188	0xbd108449	-0.035282407
189	0xbd3fe71c	-0.046851262
190	0x3d2e9664	0.042623892
191	0x3dfec197	0.12439268
192	0x3df15eeb	0.11785682
193	0x3c76026c	0.015015226
194	0x3d85c9f3	0.065326594
195	0xbbbbbf63	-0.005729602
196	0x3dc16665	0.09443358
197	0x3d99a1ce	0.07501565
198	0x3de7a4db	0.113107406
199	0x3d8a8413	0.067634724
200	0x3dcaff99	0.09912033
201	0x3d40812f	0.0469982
202	0x3cdfb6f9	0.027308928
203	0x3d4b8c08	0.04969409
204	0xbce8f3c6	-0.028436553
205	0xbcfa3cac	-0.030546509
206	0xbe091a31	-0.13388897
207	0xbbe3ab8f	-0.0069479416
208	0x3d098ece	0.033583455
209	0x3cbfaec4	0.023398764
210	0xbe4dfb43	-0.2011538
211	0xbe0c7560	-0.1371665
212	0xbb3d71a3	-0.0028906844
213	0x3d93ee66	0.07223205
214	0x3da341bd	0.07971523
215	0x3c905f63	0.017623609
216	0xbda62af5	-0.08113662
217	0x3d47088b	0.04859213
218	0x3df9b4c5	0.12192682
219	0xbd8ac207	-0.06775289
220	0x3d908d0e	0.07058154
221	0x3d168ae0	0.036753535
222	0xbd1b0422	-0.03784574
223	0xbc148826	-0.009065663
224	0x3ba53656	0.0050418777
225	0xbdd95c43	-0.10613301
226	0xbd581a67	-0.052759554
227	0xbd0ec0c4	-0.034851804
228	0x3cc0e9e5	0.02354903
229	0xbd4c3188	-0.049851924
230	0xbc9d1f9c	-0.019180112
231	0x3dbee74b	0.093214594
232	0x3d1245e4	0.035711184
233	0xbc9c1444	-0.019052632
234	0xbce8861b	-0.028384259
235	0x3df2649f	0.11835598
236	0x3e3f3357	0.18671928
237	0x3ca6a0fe	0.020340439
238	0xbba65a43	-0.005076678
239	0x3b32b325	0.0027267423
240	0x3ddf3cbc	0.10900256
241	0xbcefe782	-0.029285196
242	0x3a1af268	0.0005910755
243	0xbcb003f0	-0.021486253
244	0xbd96eeb7	-0.0736975
245	0xbd5bab08	-0.053629905
246	0xbe2654b1	-0.16243245
247	0xbd95f3c5	-0.07321886
248	0xbbcf94e5	-0.0063348883
249	0x3a449e42	0.0007500389
250	0xbcffa07d	-0.031204456
251	0x3be115ee	0.0068690693
252	0xbc208d23	-0.009799275
253	0x3d9d568d	0.07682524
254	0x3d2323f9	0.039829228
255	0xbd7bb0ef	-0.061448034

layer2.0.bias f4 [32]
0	0x3db581df	0.088626616
1	0x3d7612ba	0.060076453
2	0x3cb03b10	0.021512538
3	0xbc4e913e	-0.012607871
4	0x3cbe782a	0.023250658
5	0xbb87a336	-0.0041393293
6	0xbd7e145d	-0.06203114
7	0x3d14a65d	0.03629147
8	0x3bfbb3eb	0.00768136
9	0x3cbd4b56	0.023107212
10	0xbc54e3a3	-0.012993726
11	0xbb7d21cd	-0.0038624883
12	0xbd7a681a	-0.061134435
13	0xbde929ba	-0.11384912
14	0xba7de7ae	-0.0009685707
15	0xbc8cbac0	-0.017178893
16	0x3cbc8f80	0.023017645
17	0xbc829dd2	-0.015944395
18	0x3c6f9fb1	0.014625476
19	0xbcf81796	-0.030284684
20	0x3c99068d	0.018679881
21	0x3dc2ca79	0.09511275
22	0x3d8a72d4	0.06760183
23	0xbc19788a	-0.009367118
24	0x39c7d70f	0.0003811647
25	0x3d92566b	0.07145389
26	0x3c63d1a0	0.013904959
27	0xbb0a660e	-0.0021117958
28	0x3c607754	0.013700325
29	0x3c1a4604	0.009416107
30	0xbc91a188	-0.01777722
31	0xbc1bce46	-0.009509629

layer2.1.weight f4 [32]
0	0x3f7696cf	0.96323866
1	0x3f876c51	1.057993
2	0x3f664643	0.8995096
3	0x3f6fd746	0.93687856
4	0x3f892809	1.0715343
5	0x3f5a31b6	0.852321
6	0x3f669eb3	0.90085906
7	0x3f8a8e99	1.0824767
8	0x3f53b69b	0.8270051
9	0x3f7e289e	0.99280727
10	0x3f7450c6	0.9543575
11	0x3f8831eb	1.0640234
12	0x3f8e160c	1.1100478
13	0x3f6513fa	0.89483607
14	0x3f8524fa	1.0401909
15	0x3f81dbd4	1.0145211
16	0x3f69f83c	0.913944
17	0x3f800bf6	1.000365
18	0x3f733667	0.95004886
19	0x3f7a6d3b	0.9782292
20	0x3f7e5047	0.99341244
21	0x3f6521a9	0.89504486
22	0x3f7f3573	0.9969093
23	0x3f86466a	1.0490239
24	0x3f88a30e	1.067476
25	0x3f849387	1.0357522
26	0x3f7a1610	0.97689915
27	0x3f7e9f21	0.9946156
28	0x3f8dc505	1.107575
29	0x3f7c47a6	0.98546827
30	0x3f8a2034	1.0791078
31	0x3f8c9b5a	1.098491

layer2.1.bias f4 [32]
0	0xbebe2ea0	-0.37144947
1	0xbe6fa6a0	-0.23403406
2	0xbe4de802	-0.20108035
3	0xbe92f20d	-0.28700295
4	0xbe4120eb	-0.18860213
5	0xbed1706e	-0.4090609
6	0xbeba4357	-0.363795
7	0xbe9d023d	-0.3066577
8	0xbedbb680	-0.42912674
9	0xbeb540c5	-0.35400978
10	0xbe81f4bc	-0.2538203
11	0xbef311ae	-0.47474426
12	0xbeaa43de	-0.33254904
13	0xbea6b384	-0.32558835
14	0xbeb9ee6c	-0.36314714
15	0xbe86edaa	-0.26353198
16	0xbe85abdb	-0.26107678
17	0xbeb8184a	-0.3595603
18	0xbeda520c	-0.42640722
19	0xbebe8ce6	-0.37216872
20	0xbec4fa2a	-0.3847211
21	0xbeb6c0e8	-0.3569405
22	0xbe991771	-0.29900697
23	0xbeb4a06e	-0.35278648
24	0xbef14e0f	-0.47129866
25	0xbe3ea702	-0.18618396
26	0xbeac110d	-0.3360676
27	0xbe91407e	-0.28369516
28	0xbe9967c9	-0.29961994
29	0xbe9104d8	-0.28324008
30	0xbe54c855	-0.20779546
31	0xbec34e20	-0.38145542

layer2.1.running_mean f4 [32]
0	0xbec80c1d	-0.39071742
1	0xbf8076f3	-1.00363
2	0x3e247b89	0.1606275
3	0xbda9e11f	-0.082948916
4	0x3e0fc2a0	0.14039087
5	0xbe94bcee	-0.29050392
6	0xbf7aeb73	-0.98015517
7	0xbf195422	-0.59894
8	0xbed460cf	-0.4148011
9	0xbed430b5	-0.4144341
10	0x3d864297	0.0655567
11	0xbe80ab37	-0.25130627
12	0xbf2cd6e8	-0.6751542
13	0xbf4f06f2	-0.8086997
14	0xbef8c16b	-0.48585066
15	0xbf658ff2	-0.8967277
16	0xbeac7cd2	-0.3368898
17	0xbf2413f2	-0.64092934
18	0xbf027e4f	-0.5097398
19	0xbec42f4d	-0.38317338
20	0x3ed44527	0.4145901
21	0xbec6d8ad	-0.38837186
22	0xbe5a2ecb	-0.21306913
23	0xbd81ccf4	-0.0633792
24	0x3e4a466f	0.19753431
25	0xbebbebe1	-0.367034
26	0xbdabcbe5	-0.08388499
27	0xbf02144f	-0.5081224
28	0xbed98ef4	-0.42491877
29	0xbef30661	-0.47465804
30	0xbf2bca78	-0.6710582
31	0xbe723b06	-0.23655328

layer2.1.running_var f4 [32]
0	0x400a8180	2.164154
1	0x3fbed59f	1.4908942
2	0x407cbe34	3.949109
3	0x404f1898	3.235876
4	0x403ca38c	2.947482
5	0x400cd62b	2.2005718
6	0x40644bfb	3.5671375
7	0x40018523	2.023751
8	0x403859f9	2.8804915
9	0x40370e1c	2.8602362
10	0x3fdc25df	1.7199057
11	0x40044713	2.066838
12	0x3ff67efd	1.9257504
13	0x4025cc6c	2.590602
14	0x400fc5d4	2.2464495
15	0x3fd47b69	1.6600162
16	0x4028538d	2.6300995
17	0x4035b06d	2.8388932
18	0x3fd946c3	1.697472
19	0x400cb0c1	2.1982882
20	0x3fd0fefb	1.6327814
21	0x4001a100	2.0254517
22	0x404bd83b	3.1850727
23	0x400f4c40	2.239029
24	0x3fff29a3	1.9934582
25	0x409dbffe	4.9296865
26	0x3fe9e6b3	1.8273529
27	0x4082294f	4.0675426
28	0x4046d8a8	3.1069736
29	0x4081e441	4.059113
30	0x4008b96a	2.1363168
31	0x40402f54	3.0028887

fc1.weight f4 [120, 1568]
0	0x3b4969f8	0.0030733328
1	0xbcb86ff6	-0.022514325
2	0xbcc73ce0	-0.02432102
3	0xbc7c8e72	-0.015414821
4	0x3c6820be	0.014167963
5	0x3b388ca1	0.0028159993
6	0xbb33647a	-0.002737312
7	0xbcafb9f2	-0.02145097
8	0xbc3f4d4e	-0.011676146
9	0xbbf38f02	-0.0074328193
10	0x3b9f75d7	0.0048663425
11	0x3cb88af0	0.022527188
12	0xbcd35635	-0.025797943
13	0xbca43310	-0.02004388
14	0xbcda0c92	-0.026617322
15	0x3c742f03	0.014903787
16	0x3bde6646	0.0067870943
17	0xba44d593	-0.00075086317
18	0x3c36fc21	0.011168511
19	0xbca2d936	-0.019878965
20	0x3cc71ad1	0.02430478
21	0x3c8727d8	0.016498491
22	0xbca8adcd	-0.020590687
23	0x3ba68c7e	0.005082666
24	0xbbe02c37	-0.0068412083
25	0x3b97d896	0.0046339734
26	0x3bdbacb6	0.0067039384
27	0x3c40bbce	0.011763526
28	0xbcd59ae3	-0.026074832
29	0xbc8263f0	-0.015916795
30	0x3c222951	0.009897546
31	0xbc50ba4e	-0.012739731
32	0x3c89f578	0.016840681
33	0xbc925dcb	-0.01786699
34	0xbc98ec69	-0.018667417
35	0xbcdc5763	-0.026897138
36	0xbaa95e02	-0.0012921693
37	0xbc758e4b	-0.014987539
38	0x3c8c389d	0.017116839
39	0xbc3d32a7	-0.011547721
40	0xbc374e9f	-0.011188178
41	0x3beeb6c0	0.007284969
42	0xbcac4fec	-0.021034203
43	0xbcd1758b	-0.025568744
44	0xbcd532ae	-0.026025143
45	0x3c42c234	0.011887122
46	0xbba98b4e	-0.005174077
47	0x3c8fd8bb	0.0175594
48	0x3cc48295	0.023988048
49	0x3c8b9325	0.017037937
50	0x3c1967c9	0.009363123
51	0xbc565966	-0.013082838
52	0xbb8b4fd5	-0.00425146
53	0xbccc3255	-0.024926344
54	0xbc96df30	-0.018416971
55	0x3c203766	0.009778833
56	0xb9e2e8dc	-0.00043279573
57	0x3c68d489	0.014210829
58	0x3bd21383	0.0064110174
59	0xbb974626	-0.0046165166
60	0xbc08d59f	-0.0083517125
61	0x3ba657dc	0.0050763916
62	0x3bd1570b	0.00638855
63	0x3ba77b58	0.0051111393
64	0xbb9618b7	-0.004580583
65	0xbb87a253	-0.0041392236
66	0x3c988ba8	0.01862128
67	0x3c30dcb0	0.0107948035
68	0x3c054f3d	0.008136568
69	0xbcf03469	-0.029321866
70	0xbcb0e91c	-0.02159553
71	0x3c90486f	0.017612664
72	0x3c164454	0.009171564
73	0x3c06a137	0.008217148
74	0xbcbc3846	-0.022976052
75	0xbc9d0495	-0.019167224
76	0xbc17d33f	-0.009266674
77	0xbc611238	-0.013737254
78	0xbcefc4c1	-0.029268624
79	0xbca941ac	-0.020661198
80	0xbac7570c	-0.0015208437
81	0x3ca6c128	0.020355776
82	0x3c96332b	0.018334946
83	0x3c25af84	0.010112647
84	0xbaae019f	-0.001327563
85	0x3cb7849e	0.022402104
86	0xbb2d44f0	-0.0026438795
87	0x3b4802c5	0.003051923
88	0xbb922f83	-0.0044612302
89	0x3c7fe001	0.015617372
90	0xbc9fa4e6	-0.01948781
91	0xba8d409f	-0.0010776705
92	0xbc29a3af	-0.010353967
93	0xbcf64789	-0.030063407
94	0x3cc361da	0.02385037
95	0x3c624f84	0.013812903
96	0x3c71529e	0.01472917
97	0x3b9e7109	0.004835252
98	0x3cad7d6c	0.02117797
99	0x3ca4764e	0.020075943
100	0x3b84482a	0.004036923
101	0x3c949645	0.01813806
102	0x3c25e9c2	0.010126533
103	0x3bbf21c1	0.005832881
104	0xbc3ac373	-0.011399138
105	0x3bfbe46c	0.007687142
106	0xbacfe1cb	-0.0015860138
107	0xbc0450e4	-0.008075926
108	0xbcaa33db	-0.02077668
109	0xbcf273bc	-0.029596202
110	0x3c6ea175	0.014564862
111	0x3c330e39	0.010928684
112	0x3c9ad359	0.018899607
113	0xbc239946	-0.009985274
114	0xbcadcab4	-0.02121482
115	0xbb4db68d	-0.0031389326
116	0x3d055c56	0.03255876
117	0x3b8463cd	0.0040402175
118	0xbc0bac66	-0.00852499
119	0xbc380ebd	-0.011233983
120	0x3c867d12	0.01641706
121	0xbce7eef2	-0.02831218
122	0xbba6b153	-0.0050870567
123	0x3c905b9f	0.017621813
124	0x3c1a7afd	0.009428737
125	0xb961b2a7	-0.00021524225
126	0x3c049db9	0.008094245
127	0x3c925e1f	0.017867146
128	0xbc8b32d4	-0.01699201
129	0xbc017bbf	-0.0079030385
130	0x3c983f71	0.018584939
131	0xbcb93d3f	-0.022612212
132	0xbc94df77	-0.018172963
133	0x3c5b983e	0.013402997
134	0x3b8878c7	0.0041647884
135	0x3c81dfb5	0.015853742
136	0x3c6ae9b3	0.014337945
137	0xbc37a902	-0.011209728
138	0x3c9b9754	0.018993057
139	0x3bcb4de7	0.006204355
140	0x3b127cce	0.0022352221
141	0xbc55c923	-0.013048443
142	0xbcf139fa	-0.02944659
143	0x3bff6d69	0.007795025
144	0x3ae48914	0.0017435872
145	0x3c7428a9	0.014902272
146	0xbc984fec	-0.018592797
147	0xbc60dc1f	-0.013724356
148	0x3b7518c9	0.0037398806
149	0xbb88f726	-0.004179853
150	0x3c85d548	0.016337052
151	0xbca51188	-0.020149961
152	0x3ca49abe	0.020093318
153	0x3be51f93	0.0069922893
154	0xbcfe2a82	-0.031026129
155	0x3b3499ea	0.002755756
156	0xbc67cf2f	-0.0141485175
157	0xbc005680	-0.007833123
158	0xbc9dfd22	-0.019285742
159	0x3c8726b8	0.016497955
160	0x3cbc6359	0.022996591
161	0xbcd6a516	-0.026201766
162	0xbc60981d	-0.013708142
163	0x3b83925f	0.0040152515
164	0x3c4c367f	0.012464165
165	0xbc6e0a3a	-0.014528805
166	0x3c998a4f	0.018742708
167	0x3c6f0718	0.014589094
168	0x3c19631c	0.009362008
169	0x38bd4058	9.024207e-05
170	0x3cb1c303	0.021699434
171	0xbcba347b	-0.022730103
172	0xbca497f9	-0.020091997
173	0xbc0256a0	-0.007955223
174	0xbcabd63e	-0.020976182
175	0x3b851712	0.004061588
176	0xbca489aa	-0.020085175
177	0xbcb18125	-0.021668026
178	0xbc965981	-0.018353226
179	0x3c9c202c	0.01905831
180	0x3ba78b7a	0.0051130624
181	0xbbfbaafd	-0.0076802955
182	0xbc109aaa	-0.008825937
183	0xbc8f9239	-0.01752578
184	0x3c8e6635	0.01738272
185	0x3c867ed9	0.016417908
186	0xbae0a4f3	-0.0017139002
187	0xbce0d7db	-0.027446678
188	0xbc98d030	-0.018653959
189	0xbca2c4d8	-0.019869253
190	0xbc88a4ed	-0.016680205
191	0x3c779a7c	0.015112516
192	0xba377f40	-0.0006999858
193	0x3c843758	0.016139671
194	0xbce42702	-0.027850632
195	0x3af3b7e1	0.0018594229
196	0xbcc16126	-0.023605894
197	0xbc690872	-0.014223205
198	0xbc489184	-0.012241725
199	0xbc8791e1	-0.016549053
200	0xbcd5fbff	-0.026121138
201	0x3cef676e	0.029224124
202	0x3cc4b90d	0.02401402
203	0xbce47392	-0.02788714
204	0xbb4e0d71	-0.0031441117
205	0x3cbd3a06	0.023098957
206	0x3b072b8c	0.0020625321
207	0xbcb37252	-0.021905098
208	0xbadd7197	-0.0016894814
209	0x3c349d6f	0.011023863
210	0x3c43f3c6	0.011959976
211	0xbc0f9867	-0.008764363
212	0x3c6fc749	0.014634916
213	0xbce23442	-0.02761281
214	0xbcb23aeb	-0.02175661
215	0x3cf08342	0.029359464
216	0x3d01c6cc	0.031683728
217	0xbc9c4392	-0.019075189
218	0xbcae547b	-0.021280518
219	0xbc9bb31f	-0.01900631
220	0x3c85e1d9	0.016343044
221	0x3ba2bb56	0.00496618
222	0xbcebf63d	-0.028803939
223	0xbc3d15cb	-0.01154084
224	0x3c3ce13f	0.011528312
225	0xbc792093	-0.01520552
226	0xbcbdb1da	-0.023156095
227	0xbbff91fb	-0.0077993846
228	0xbc2bd8fc	-0.010488745
229	0xbc835f0b	-0.016036531
230	0xb9935fd4	-0.00028109422
231	0x3c80121a	0.015633631
232	0xbcda1bce	-0.026624586
233	0x3c9db0f9	0.019249426
234	0x3c09a2d5	0.008400639
235	0x3c291a3e	0.010321198
236	0xb9af05c4	-0.00033382897
237	0xbc149456	-0.009068569
238	0x3c2a75c8	0.010404058
239	0x3c101f2c	0.008796494
240	0x3a427469	0.0007417859
241	0xbc581458	-0.013188444
242	0x3c102e25	0.008800064
243	0x3c1261c5	0.008934443
244	0x3c818ac6	0.015813243
245	0xbc529620	-0.012853175
246	0xbc19eb50	-0.009394482
247	0xbc829143	-0.015938407
248	0xb8f4f3da	-0.000116802476
249	0xbc99f6da	-0.018794466
250	0x3c58b45c	0.013226595
251	0xbc657869	-0.014005759
252	0xbb03b268	-0.0020095352
253	0xbc7cf45a	-0.015439117
254	0x3c737c8a	0.014861235
255	0xbc698793	-0.014253515

fc1.bias f4 [120]
0	0x3be60663	0.0070198043
1	0xbc892481	-0.01674104
2	0xbc9aaeb2	-0.01888213
3	0x3d60f186	0.054917835
4	0xbd210788	-0.039313823
5	0xbcac6129	-0.021042423
6	0xbc9fa750	-0.01948896
7	0xbd5dbfe9	-0.054138098
8	0xbcb0c45c	-0.021578006
9	0xbb27bb0f	-0.0025593673
10	0xbd5de673	-0.05417485
11	0x3c260765	0.010133599
12	0xbd1ba122	-0.037995465
13	0x3caeb1f2	0.021325085
14	0x3c5dad70	0.01353012
15	0xbd1c6434	-0.0381815
16	0x3bec5f2a	0.007213493
17	0x3cf3b5c3	0.029749757
18	0xbbb4b526	-0.0055147586
19	0xbc158978	-0.009127013
20	0x3ce5d9f2	0.028058026
21	0xb998be7e	-0.00029133627
22	0xbcc92136	-0.024551969
23	0xbbaf770d	-0.005354768
24	0x3c1dad46	0.009623831
25	0xbd83e8e3	-0.06440904
26	0x3c8b5e02	0.0170126
27	0x3d745f99	0.05966148
28	0xbd246710	-0.04013735
29	0xbc276faf	-0.010219499
30	0xbb438c49	-0.0029838255
31	0x3b6210d4	0.0034494894
32	0xbc9bc974	-0.019016959
33	0x3c490c05	0.012270932
34	0xbb098113	-0.0020981475
35	0x3ce8fea4	0.028441735
36	0xbbe609f2	-0.0070202285
37	0x3cbb04eb	0.022829494
38	0xbc8b31c6	-0.016991507
39	0xbd4c06a4	-0.04981102
40	0xba81299f	-0.0009854323
41	0x3d5e89ac	0.054330513
42	0x3c5e033c	0.013550576
43	0xbcbdcad4	-0.023168005
44	0x3b80b673	0.0039279996
45	0x3cf31901	0.029675009
46	0x3d5a8a3c	0.053354487
47	0xbd256fb9	-0.04038975
48	0x3c6c5209	0.014423856
49	0x3d6053bd	0.05476736
50	0x3cc66069	0.024215894
51	0x3d4f0c99	0.050549123
52	0xbcb8c594	-0.02255515
53	0xbb8c12ec	-0.0042747166
54	0xba7af290	-0.0009572888
55	0x3d111db4	0.035428718
56	0xbcdcbc55	-0.026945272
57	0x3cfa71e3	0.030571884
58	0x3b63a25c	0.0034734225
59	0xbd1d26c0	-0.038367033
60	0xbb950259	-0.004547399
61	0xbc55b91c	-0.013044622
62	0xbba5db2c	-0.0050615277
63	0x3c712289	0.0147177065
64	0x3cefb0cf	0.029259114
65	0xbc43c5ea	-0.011949042
66	0x3c29e81e	0.010370282
67	0xbc624d85	-0.013812427
68	0xbb0581d2	-0.0020371568
69	0xbd0ec52d	-0.03485601
70	0xbcb2bc12	-0.021818195
71	0x3c6adda3	0.014335069
72	0xbc50bc0a	-0.0127401445
73	0xbcbf4f23	-0.023353165
74	0xbcddf36d	-0.027093614
75	0xbcb130ad	-0.021629656
76	0xbc965933	-0.01835308
77	0x3a2b57a4	0.0006536192
78	0xbd08ebbf	-0.03342795
79	0x3cfca835	0.030841926
80	0xbbae1255	-0.005312244
81	0xbd52b4dd	-0.051442016
82	0xbc9738e0	-0.018459737
83	0xbbebc426	-0.0071950136
84	0xbc978bff	-0.018499373
85	0x3c3df808	0.01159478
86	0xbca4c2e9	-0.020112472
87	0x3d105d6c	0.035245344
88	0xbc090fd9	-0.008365595
89	0xbcebb919	-0.028774785
90	0x3c6682c2	0.014069261
91	0xbbdf56c2	-0.0068157623
92	0xbb1058ab	-0.0022025506
93	0x3bd06d88	0.0063607134
94	0xbb8a3252	-0.0042174244
95	0xb9dfc8dd	-0.0004268353
96	0x3d3046e9	0.043036375
97	0x3ca738af	0.020412771
98	0xbbe10a4a	-0.0068676816
99	0xbc285e07	-0.010276324
100	0x3cf1d396	0.029519837
101	0xbc234bc3	-0.0099667935
102	0x3bdf370a	0.006811981
103	0x3c8f62bd	0.017503137
104	0x3d445993	0.047936987
105	0xbd036975	-0.032082994
106	0xbcba0769	-0.022708612
107	0x3cf57e4a	0.029967446
108	0xbb9621da	-0.004581672
109	0x3cac34c7	0.02102126
110	0xba84f145	-0.0010142705
111	0x3c0a3c5c	0.008437242
112	0xbbb9f02b	-0.005674382
113	0xbbb4d428	-0.005518455
114	0x3bc467b2	0.0059938068
115	0xbc598c26	-0.013278043
116	0x3c0d3250	0.0086179525
117	0x3c69541a	0.014241243
118	0xbbe6e81e	-0.0070467135
119	0x3bcc912e	0.0062428927

fc2.weight f4 [10, 120]
0	0xbbd96595	-0.006634424
1	0xbd768a4f	-0.060190495
2	0xbd9dc496	-0.077035114
3	0x3d5eebcf	0.054424103
4	0xbdd9fb50	-0.10643637
5	0x3d3a20b8	0.04544136
6	0xbc1e1c79	-0.009650343
7	0xbe110164	-0.14160687
8	0xbcded0e2	-0.027199212
9	0xbe4d279d	-0.20034643
10	0x3d81db19	0.06340618
11	0x3d8ce8c8	0.06880337
12	0xbd9fcae1	-0.07802368
13	0x3d5ee020	0.05441296
14	0x3d553e7c	0.052061543
15	0xbe0b26dd	-0.13589044
16	0x3d213a78	0.0393624
17	0x399ac076	0.00029516564
18	0x3c11bb56	0.008894762
19	0xbe000bf5	-0.12504561
20	0xbd558210	-0.05212599
21	0x3d9d4ded	0.07680879
22	0xbd88809b	-0.066651545
23	0x3dd978e8	0.10618764
24	0xbdb0cd01	-0.086328514
25	0x3d9dd986	0.07707505
26	0xbd8a142e	-0.0674213
27	0xbe08aa81	-0.13346292
28	0x3dae09d7	0.084979706
29	0x3af5bb68	0.0018747868
30	0x3c692d97	0.014232061
31	0x3d9a7fab	0.07543882
32	0xbdc31de6	-0.09527187
33	0xbdde5b5a	-0.10857268
34	0xbcbd90bd	-0.023140306
35	0x3d7a19ea	0.06105987
36	0x3de2de8b	0.11077603
37	0x3d3a87a5	0.045539517
38	0x3d5af3d2	0.05345518
39	0x3d8165af	0.06318223
40	0x3c9c4fd7	0.01908104
41	0xbde582b3	-0.112065695
42	0xbd860954	-0.06544748
43	0xbd5e4e6f	-0.05427402
44	0x3d14c636	0.03632184
45	0x3dc5a91e	0.09651397
46	0xbce33b08	-0.02773811
47	0xbdb8ab38	-0.090170324
48	0x3e1799b4	0.14804727
49	0x3dddc007	0.10827642
50	0xbdd64106	-0.10461621
51	0x3c580c97	0.013186595
52	0xbe4f0ad3	-0.20218973
53	0x3d1175b4	0.03551264
54	0xbd9601d1	-0.07324565
55	0xbc11ea76	-0.0089059975
56	0xbd492e07	-0.04911616
57	0x3cbbb77c	0.02291464
58	0x3db8d6ee	0.090253696
59	0xbd8f42d4	-0.06995168
60	0x3dcd46f5	0.100232996
61	0xbda836c9	-0.082135744
62	0xbde2bce3	-0.110711835
63	0x3cf99a77	0.030469162
64	0x3e0fe5e9	0.14052548
65	0x3d486770	0.04892677
66	0xbd4e7c69	-0.050411616
67	0xbd57383e	-0.05254387
68	0x3d00d794	0.03145559
69	0x3d577962	0.052605994
70	0xbd6770c2	-0.05650402
71	0xbd6ad47e	-0.057331555
72	0x3da4a693	0.08039584
73	0xbd0b9bee	-0.034084253
74	0xbda1f148	-0.07907349
75	0xbd956d3b	-0.07296225
76	0xbd4a3f40	-0.049376726
77	0x3d820c61	0.06350017
78	0x3da985e0	0.08277488
79	0x3cf69233	0.03009901
80	0xbb5ab766	-0.0033373474
81	0xbc032487	-0.008004314
82	0xbd23fe3e	-0.040037386
83	0xbe2d75de	-0.16939494
84	0x3cd8a72d	0.026446903
85	0x3c0ecdc3	0.00871605
86	0x3b4fb3a9	0.003169278
87	0xbdd1e628	-0.10248977
88	0xbd02bf6e	-0.031920843
89	0x3daa4dec	0.08315644
90	0xbd804272	-0.062626734
91	0xbe218c83	-0.15776257
92	0x3d00f4c6	0.031483434
93	0x3d9ccf50	0.07656729
94	0xbbf2e3ee	-0.0074124252
95	0xbe169ee5	-0.14709051
96	0x3dc73a4a	0.09727915
97	0x3dcfbe8a	0.10143764
98	0x3d07e31a	0.033175565
99	0x3bb5d9e4	0.005549656
100	0xbe2725a6	-0.16322955
101	0x3c356c1c	0.011073139
102	0x3d9133ab	0.07089933
103	0xbc7f4be3	-0.015582058
104	0xbd11fdc7	-0.03564241
105	0xbdda489f	-0.106583826
106	0xbdee4e09	-0.11635978
107	0xbcfd5bd1	-0.03092757
108	0xbd6bcb8d	-0.057567168
109	0xbdd6a1d6	-0.104800865
110	0x3c7fdd9e	0.0156168025
111	0xbe325ee6	-0.17419013
112	0xbd9fcc80	-0.07802677
113	0xbd7b5fcb	-0.061370652
114	0x3dbea920	0.09309602
115	0x3e1704f8	0.14747989
116	0x3c16aa38	0.009195857
117	0x3cd5ee2f	0.026114551
118	0xbcdd8527	-0.027041031
119	0xbe22775f	-0.15865849
120	0x3d5fe294	0.05465944
121	0xbe2f97b7	-0.17147718
122	0xbd06ef5c	-0.032943115
123	0x3e1794e6	0.14802894
124	0x3d927a82	0.07152273
125	0xbd794b76	-0.06086298
126	0xbe09fbf1	-0.13475014
127	0xbca8db05	-0.02061225
128	0xbd9eb097	-0.077485256
129	0x3ddfcba9	0.10927517
130	0xbdc105e1	-0.094249494
131	0xbda36fa2	-0.07980277
132	0xbd88a651	-0.06672347
133	0xbd5919e9	-0.053003225
134	0x3caedf57	0.021346731
135	0xbe0eb38a	-0.13935676
136	0x3d16b8ec	0.03679745
137	0x3d63242a	0.05545441
138	0x3d3014ab	0.04298846
139	0xbd17e55f	-0.03708398
140	0xbd64851e	-0.055791013
141	0xbe3702b2	-0.17872122
142	0xbda3b1dc	-0.07992908
143	0x3da7e69b	0.081982814
144	0xbda79267	-0.08182221
145	0xbb90868f	-0.004410572
146	0xbe60528f	-0.21906494
147	0x3da40cc5	0.08010248
148	0xbdeaa9d2	-0.11458172
149	0x3cdc8e79	0.026923405
150	0xbdbccddf	-0.09218954
151	0x3a80f819	0.0009839564
152	0x3d98c919	0.07460231
153	0x3d3d3af0	0.046198785
154	0x3d5ec187	0.05438378
155	0x398cfefa	0.00026892853
156	0x3de09068	0.10965043
157	0xbd708517	-0.058720674
158	0xbe1e070d	-0.15432377
159	0xbe00078b	-0.12502877
160	0xbcc743e4	-0.024324365
161	0x3d5f8c1e	0.054576986
162	0x3dbc7f09	0.092039175
163	0x3d838456	0.064217255
164	0x3dbd0755	0.09229914
165	0xbd94ce17	-0.07265871
166	0x3d4c06aa	0.049811043
167	0x3db7c178	0.08972448
168	0x3e1a4a30	0.15067363
169	0xbd8fcb8b	-0.070212446
170	0x3d9e268b	0.07722195
171	0xbd786e54	-0.060652092
172	0x3d2595b9	0.04042599
173	0x3bf611c3	0.0075094416
174	0x3ba77804	0.0051107425
175	0xbd95eb0b	-0.073202215
176	0xbdf43e52	-0.11925949
177	0x3addbaf1	0.0016916675
178	0xbe25f187	-0.16205417
179	0xbe69d091	-0.22833468
180	0xbe0dbff9	-0.13842763
181	0xbd99117d	-0.07474039
182	0xbdcd6793	-0.10029521
183	0x3d8e2470	0.06940544
184	0x3e3dca82	0.18534282
185	0x3d9ddcfb	0.07708164
186	0x3d90c930	0.070696235
187	0x3c71e512	0.014764087
188	0xbdc9147a	-0.09818359
189	0xbd995ab5	-0.07488004
190	0xbdb903c0	-0.090339184
191	0x3d60c2cf	0.054873284
192	0xbbf99b22	-0.00761737
193	0xbd50db19	-0.050990198
194	0x3d527afc	0.05138682
195	0xbc391fbc	-0.01129907
196	0x3cb26754	0.021777786
197	0xbda64127	-0.081178956
198	0x3d492472	0.049107023
199	0x3e2a44c0	0.16627789
200	0x3d95a355	0.07306544
201	0xbcd19308	-0.025582805
202	0x3d9df923	0.07713535
203	0x3d34ec0f	0.044170436
204	0x3bdee23d	0.006801872
205	0xbc2643f2	-0.010148035
206	0x3d42e7f3	0.047584485
207	0x3d817778	0.06321615
208	0xbd9ee686	-0.077588126
209	0xbdbe0b2f	-0.09279477
210	0x3d856015	0.06512467
211	0x3dc177e9	0.09446699
212	0xbddb8f39	-0.10720677
213	0xbd1a305f	-0.037643787
214	0xbd7d3e81	-0.061827186
215	0x3d4e6331	0.050387565
216	0x3dea6377	0.11444753
217	0x3d406e83	0.046980392
218	0x3d4d1660	0.050070167
219	0xbddd36f5	-0.10801498
220	0x3d31fa37	0.043451514
221	0xbcf5c3b1	-0.03000054
222	0x3d0442ae	0.032290153
223	0xbd666373	-0.056247186
224	0x3e385c1c	0.18003887
225	0x3c26860e	0.010163797
226	0xbd987128	-0.07443458
227	0x3ca731c6	0.020409476
228	0x3c197bc7	0.00936789
229	0x3d7f327d	0.06230401
230	0xbd537f32	-0.051634975
231	0x3dd8221b	0.1055338
232	0xbc32c882	-0.010912063
233	0x3d9da2b5	0.076970495
234	0xbc23dd12	-0.010001438
235	0xbe1274de	-0.14302394
236	0x3d1da21d	0.03848468
237	0x3db9fc7c	0.09081361
238	0xbdbf350d	-0.093362905
239	0x3bc1c940	0.0059138834
240	0xbc9fba50	-0.01949802
241	0xbe1d3f22	-0.15356115
242	0xbd1756ff	-0.0369482
243	0xbe2ceab1	-0.16886403
244	0x3abcc9f2	0.0014403446
245	0xbd2bb2b1	-0.04191846
246	0x3d27dbbf	0.04098105
247	0x3b86bb10	0.004111655
248	0xbd5d2405	-0.05398943
249	0x3ac73e33	0.0015201032
250	0x3d5115c4	0.051046148
251	0xbd536078	-0.05160567
252	0xbe1a8b52	-0.15092209
253	0x3dd14040	0.10217333
254	0xbdfb9c74	-0.122857004
255	0xbd2bee32	-0.041975208

fc2.bias f4 [10]
0	0xbdd5d2ae	-0.104405746
1	0x3cf0ab7d	0.029378647
2	0xbcf64530	-0.030062288
3	0x3d895b8d	0.06706915
4	0xbd987f55	-0.07446162
5	0xbd3f3111	-0.046677653
6	0xbd5c5351	-0.053790394
7	0xbd3adae5	-0.04561891
8	0xbd1a8e9d	-0.037733663
9	0x3b278d96	0.002556657
