HW3_FashionMNIST Classifier using CRNN/crnn_20180032.pth (torch, 849762 bytes, 34 tensors)

layer1.0.weight f4 [32, 1, 5, 5]
00000000: d095 85bd e920 023d 4f0c 893d 09fd c6bc
00000010: 9644 5bbe b4dd 75be 88f8 60be 3944 c33d
00000020: c7c8 49be 7705 143e d0e3 9d3d 6ab7 b2bc
00000030: 4760 933d 49cc a5bd cf2b 033e 7d9f 60be
00000040: 6f7b 013e aa89 39be 3228 383e 39bb 4cbd
00000050: 0673 24bd 795a a03d 556c 193e e6d6 c63d
00000060: abd7 b53c b372 153e cd14 a63c 5482 3dbe
00000070: 7c02 503d 8171 ce3d e152 e8bd 2377 73bd
00000080: 147c 543e 2816 a0bd 4c7b c4bd 78a1 4abc
00000090: 7935 5bbe cee4 7a3e 2eb9 e7bd e0e0 c53d
000000a0: 5c79 f0bc ec36 d33d 4e03 473b 93bb e23b
000000b0: 4a32 94bd ed5a 283c 9be2 e63d bf42 11be
000000c0: 4b57 87bd 35ad a63d ea7f e83b 3f72 25be
000000d0: 4a19 30bd 7362 e03d eb37 f43d ed86 973b
000000e0: 9d26 2d3e ca42 20bd cfac 35be 4be1 d9bd
000000f0: b838 dabd 45a4 4ebc a40b 303e 157f 12be
00000100: e88d 85be d2ae 273e a063 4c3e 9ea7 05be
00000110: 050c 21be 8914 44be b1e8 eebd 775e e53d
00000120: 26bd b2bd fd58 643d f151 903c cdb7 d7bc
00000130: 4ae6 7bbd f840 9e3d d201 ad3d 404f 553d
00000140: 0fe7 cbbd b805 003e 82fb 29be aa62 9dbd
00000150: a09d 88bc 431c 1a3e 6fd7 0f3e 5fd5 c93b
00000160: abcb 25be 6f5c e63d 74ca cf3d 59a8 313c
00000170: f675 1abe 6854 a4bd 25c7 383e 718d 7d3d
00000180: 7deb 0ebd ee67 43be 7d34 c3bd 1b01 653d
00000190: 2c39 c7bc 20fb 9fbd 45ea 1fbe 808e 693e
000001a0: 8e88 bcbd 2934 d6bc 3c45 793d e587 35be
000001b0: db69 7e3d 4fee 323e 78ca bcbc 017e a4bd
000001c0: 7197 a93c 02d0 bbbd 0ebe d93c dbcd fc3c
000001d0: c285 083d bb8f e7bd f5ac 0ebe 38a3 543c
000001e0: 425b f5bd 24ab 513e ddcf 383c 909f 93bd
000001f0: 5484 0abe 9c98 6fbe 2b5c 36be cc4b 36bd
00000200: 8529 923d a969 433d 373f e8bb 2c99 a6bd
00000210: 4525 ff3d d813 55bd fa43 403d a491 90bb
00000220: e2c9 ba3b a814 7d3d 1ef9 5dbe 6bec 0a3e
00000230: 5eed a5bd b7ab 5dbb 4b6c 36be 3067 5b3e
00000240: 3d4b 0abe 602d 353e 55c2 2c3d e97c 173e
00000250: fb07 1ebd e2fa e43d cf72 933c ef31 263c
00000260: 5d12 00bd 8540 71bd 6de8 4f3d 5e76 073e
00000270: b9f7 eb3d 62ff 633e ea82 153d ba9b 203c
00000280: ef55 3dbe f41d 0a3e 48ab b63d fd50 58bd
00000290: 532f 603d 73be ca3d a72c f2bd 8cf5 b83c
000002a0: 95e4 dcbd 24ac 8e3d 28db 3bbe 9311 e13d
000002b0: 4c9f bf3d bc6f e13d 8a73 463e 1d6e 38be
000002c0: 2e51 433e 54a2 903b 1f78 1bbe 8171 37be
000002d0: 898b 02bd c88d 433e 76ee 1fbd 0619 9cbd
000002e0: a3cb a2bd fd57 d4bd ae0c 213d c006 d3bb
000002f0: 0af9 2ebd b325 0ebe 8abf ebbd 1af3 0ebe
00000300: 4197 483e 8d76 25be 94f0 5e3e c5d9 e6bd
00000310: 5c52 863d d163 e9bc 4ecc f43d df11 533d
00000320: 6f94 333e 84b2 8d3d 5311 a9bd affb 13be
00000330: 76d4 49be 4ac8 bc3c d31a b3bc 2319 a63d
00000340: d49e 4bbe aecf f9bd 1260 3b3e 6c07 473e
00000350: d0e5 afbd c5d2 923d a794 a6bd d3e0 973d
00000360: 9416 f03c a873 fa3d ff14 45be c288 dfbb
00000370: 92f0 08be a66b 44be 62d2 bdbc 60a2 15be
00000380: ca73 403c d89b 423e f382 ebbd 10fb 2ebe
00000390: df5a 2b3d fb59 f4bd 3294 4abe d649 ca3d
000003a0: 3517 80bd 10ab 1a3e 4a19 e33d 318c 87bd
000003b0: c17b c33d f265 183e 4df0 1cbe 4202 083e
000003c0: 1bff 0f3e 75b0 2bbe 62fa 38be bfbf 983c
000003d0: 5b88 bb3d 51e0 fbba 6ccd a03d 40cb e9bd
000003e0: 0ffa febd b857 313e fce6 2ebd 24e7 f83c
000003f0: 117b 6fbe 9a35 8ebd b8cd 0d3e 4029 c53d
-0.06522715 0.031769667 0.06691801 -0.024290578 -0.21412882 -0.24010354 -0.21969807 0.09534497
-0.19705497 0.1445521 0.077094674 -0.021815974 0.07196098 -0.08095605 0.1280968 -0.2193584
0.12644742 -0.18118921 0.17984083 -0.049983237 -0.040148757 0.07829756 0.14982732 0.097089574
0.022197565 0.14594536 0.02027359 -0.18506747 0.05078362 0.10080243 -0.11343933 -0.05943979
0.20750457 -0.07816726 -0.095938295 -0.012367599 -0.21407117 0.24501345 -0.11314617 0.09662032
-0.029354744 0.1031321 0.003036696 0.0069193332 -0.072361544 0.010275585 0.1127369 -0.14185618
-0.06608447 0.08138505 0.0070953267 -0.16156863 -0.042992868 0.10956278 0.11924728 0.0046242387
0.16909261 -0.039126195 -0.17741702 -0.10638674 -0.106553495 -0.012612407 0.1719194 -0.1430629
-0.26084828 0.16375282 0.19959879 -0.13052222 -0.15727241 -0.19148459 -0.11665476 0.11199658
-0.087274835 0.05574893 0.017617198 -0.02633276 -0.061498918 0.077272356 0.08447613 0.05207753
-0.0995618 0.12502182 -0.16599849 -0.07684834 -0.016676724 0.15049843 0.14047025 0.006159469
-0.16190974 0.11248099 0.10146037 0.01084336 -0.15084061 -0.08023912 0.18044718 0.061902467
-0.034892548 -0.19082615 -0.09531496 0.055909257 -0.024319254 -0.0781157 -0.1561671 0.22808266
-0.09205733 -0.026147919 0.060857043 -0.17727621 0.06211267 0.1747372 -0.023045763 -0.08031846
0.020702096 -0.09170534 0.026579883 0.030859878 0.033330686 -0.11306711 -0.13933165 0.0129783675
-0.11980297 0.20475441 0.011280027 -0.072081685 -0.13527042 -0.2339806 -0.17808597 -0.04450588
0.071368255 0.047708187 -0.007087614 -0.08134684 0.124582805 -0.052020878 0.046939828 -0.004411893
0.005700336 0.061787277 -0.21677062 0.13566749 -0.08101915 -0.0033824274 -0.17814748 0.21426082
-0.13505264 0.1769309 0.042177517 0.14793743 -0.03858183 0.111806646 0.017999081 0.010143741
-0.031267513 -0.05889942 0.050758768 0.13228747 0.11521859 0.2226539 0.036501803 0.009802753
-0.18489812 0.13487989 0.08919388 -0.05281161 0.054732632 0.098996066 -0.11824923 0.022578023
-0.10785786 0.06966427 -0.1834532 0.1098968 0.09356555 0.1100764 0.19380012 -0.18010755
0.19073936 0.0044138823 -0.15182541 -0.17914392 -0.031871352 0.19097054 -0.039045773 -0.0762196
-0.07948997 -0.10368345 0.039318733 -0.0064400136 -0.04271797 -0.13881569 -0.115111426 -0.13959923
0.19588949 -0.16158505 0.21771461 -0.11272005 0.065586776 -0.028489979 0.119530305 0.051530715
0.17537092 0.06918815 -0.082552575 -0.14451478 -0.19709954 0.023044724 -0.021863377 0.08110263
-0.19884807 -0.12197815 0.18298367 0.19436425 -0.08588755 0.07169107 -0.08133822 0.07415929
0.029307641 0.12229091 -0.1924629 -0.0068217227 -0.1337302 -0.1918169 -0.023171607 -0.14612722
0.011746356 0.19004762 -0.11499586 -0.1708796 0.04183471 -0.11931225 -0.19783095 0.09877364
-0.062544264 0.15104318 0.11088808 -0.06618536 0.095450886 0.14882639 -0.15326042 0.13282111
0.14062159 -0.16766532 -0.18064263 0.01864612 0.09156867 -0.0019216632 0.07851681 -0.1141572
-0.12450039 0.17318618 -0.042700753 0.030383654 -0.2338679 -0.069438174 0.13848007 0.096270084

layer1.0.bias f4 [32]
00000000: e234 48bd 1ce9 023e 789b c1bd ec81 7abd
00000010: 9a8c a9bc a8fb a43d 843e 7bbe 9ba1 70bc
00000020: ebf6 dc3d db59 fcbd e399 b6bd 9037 10be
00000030: 927b 313e da5a 333e ad8d 03bd 3e35 8b3d
00000040: 220a 19be 2b9e 0cbe 567e 0e3e 3fe0 393e
00000050: 3807 9f3d 685f 2dbe 31b0 15bd ec80 eebd
00000060: 3098 88bc cc31 2b3e 971f 2fba bb33 57be
00000070: ac91 963d d18a 18be 539d 0bbe 7a4b 713e
-0.048878558 0.12784237 -0.094534814 -0.06115906 -0.020696927 0.08055812 -0.24535567 -0.014686967
0.10789283 -0.12321826 -0.0891607 -0.14083695 0.17332295 0.17515126 -0.032117534 0.067972645
-0.14945272 -0.13732211 0.13915381 0.1815195 0.07765049 -0.16930926 -0.036544982 -0.11645684
-0.016674131 0.16718215 -0.00066804275 -0.21015827 0.073520035 -0.14896704 -0.13634233 0.23563948

layer1.1.weight f4 [32]
00000000: 02a0 6d3f b43c 7e3f ba6b 853f d749 803f
00000010: 7649 7b3f 8641 813f 6907 433f 3b60 8c3f
00000020: 1e32 863f d435 763f 1b77 533f 20bc 7c3f
00000030: fe75 883f 9148 473f 598a 533f 18ef 803f
00000040: 0772 863f 9cc5 8d3f 42ac 803f c366 883f
00000050: 1bfc 6f3f 358e 793f 7596 7a3f 9f64 813f
00000060: 5965 613f 4a83 863f 5a98 873f 3510 833f
00000070: 77ea 823f 3af3 863f 6f40 853f 6812 823f
0.9282228 0.99311376 1.04235 1.0022534 0.9815897 1.0098121 0.7618318 1.0966867
1.0484045 0.96175885 0.82603616 0.98724556 1.0661008 0.778451 0.82632977 1.0072966
1.0503548 1.107593 1.0052569 1.065636 0.9374406 0.97482616 0.9788583 1.0108832
0.8804527 1.0508816 1.0593369 1.0239321 1.0227803 1.0542977 1.0410289 1.0161867

layer1.1.bias f4 [32]
00000000: dd2e 0dbe 77f3 433d 0eed f9bd b733 92bc
00000010: a73b 35be a314 11be 0bae 34be 54a6 d4bd
00000020: 6dde 17be c2c3 933c a3ad 65be 235e 07bb
00000030: 61ec 33be eaa4 ebbd 72ae 27be dfaf 15be
00000040: 9086 8bbe 351d 0d3d d4d5 e1bd 328e 3dbd
00000050: 4e3b dabd 28ad e1bd 1bc2 f5bd 83bc c23c
00000060: a5de b3bd 6000 03be 209b 38be ebb5 26be
00000070: be2a 37bd 8976 2bbe 00ed 0ebe 1d79 cfbc
-0.13787408 0.047839608 -0.12203418 -0.017846925 -0.17698537 -0.14168029 -0.17644517 -0.10383287
-0.14830942 0.01803768 -0.22429518 -0.0020655475 -0.1757064 -0.11506064 -0.1637514 -0.14617871
-0.272511 0.034451682 -0.110271126 -0.046278186 -0.10655843 -0.11019355 -0.11999913 0.02377153
-0.087827004 -0.12793112 -0.18027925 -0.16280334 -0.044718497 -0.16744436 -0.13957596 -0.025326306

layer1.1.running_mean f4 [32]
00000000: 39ae 02be 53a3 023e 2fdf 88be 71ef 7dbd
00000010: cfe0 1abe 3dfc 7b3d 4660 0cbc d400 21be
00000020: 9516 6abd 3d96 fabd 0de3 04bd 2cfb 14be
00000030: d4f1 d53d c4a5 9d3e d3ce 133b 33a1 92bb
00000040: 5d7c e4be 37ee 09be 94ed d23c f199 303e
00000050: 8867 e73c 7399 43be eeec d4bc 4e29 dfbd
00000060: 99ac 133c b9d3 d83d 9a9c 4cbd dd3c 2dbf
00000070: 9dae 943d eb27 8ebe bf08 89be c955 663e
-0.12761773 0.12757616 -0.26732776 -0.061995927 -0.1512482 0.06151985 -0.008567875 -0.15722972
-0.057150442 -0.12235687 -0.032443095 -0.1454894 0.10446516 0.30790532 0.0022553697 -0.004474783
-0.44626132 -0.13469778 0.025748052 0.17246224 0.02824761 -0.19101505 -0.025991883 -0.1089655
0.009013318 0.10587258 -0.049954034 -0.67670995 0.07259867 -0.2776483 -0.26764485 0.22493662

layer1.1.running_var f4 [32]
00000000: a099 d33c 1607 3c3b fc45 5a3d 5c70 573c
00000010: 668b c63c 0f1b 853c 67d3 8b3d d4e8 073d
00000020: df9f 8a3d 5e64 283c 263f 643c 01cd cb3b
00000030: a093 af3c cc5c 2c3d c6ba e13b ec77 043d
00000040: c150 f23d 25ec 1a3c 5a6c da3c 0482 ee3b
00000050: dda9 c33c 1431 153c 57b7 5e3c 06ae 123c
00000060: 7fc8 143c fea6 893c 8e32 933c a8e7 7e3e
00000070: d221 b33c 84d2 ce3c 84dc 283d 9414 413c
0.02583009 0.0028690747 0.0532894 0.013149347 0.024236392 0.016248254 0.06827431 0.033181027
0.06768774 0.010277836 0.013931071 0.0062195067 0.021432698 0.042080685 0.00688872 0.03234093
0.11831809 0.009455715 0.026662994 0.0072786827 0.023884708 0.009105939 0.013593516 0.008952623
0.009081005 0.01680326 0.017968442 0.24893057 0.021866713 0.025246866 0.041225925 0.011784691

layer2.0.weight f4 [64, 32, 5, 5]
00000000: 7b50 adbd f31a 2cbd 6955 823c a41f 9b3d
00000010: 5aab db3c b1f9 9fbd 3fbc 38bd 1687 f53c
00000020: 8c75 a03d 9cd1 9e3d 4149 b2bc c1a8 d63c
00000030: 77d1 733d c4b1 583d 5cef 28bc 005b f1bc
00000040: 9fbe 5cbd c1da 2e3d 6714 7f3d e1e8 c63d
00000050: b6ed 87bd e1a3 ce3b 1847 c439 ca6a 613d
00000060: 1e01 69bb c4f0 99bd 54f6 003d c39f 3a3d
00000070: 469c 923c a230 b63d 533c 62bc 4352 833b
00000080: 4616 963d 2a09 e33d f679 f33c d21b 3c3d
00000090: da2c 05bc 4293 f13d bf6f 293d c9e8 853d
000000a0: 7089 8abc 6919 073d 777f 073d afa7 e2bb
000000b0: 3d3d f53c 2c84 4e3d 3cfc 2b3d 8467 fa3c
000000c0: ec08 903c adfb 813b 37b9 56bc 9c0e 40bc
000000d0: 77f6 fd3c 2a27 73bd 70db ab3d 3dba 2cbb
000000e0: bff1 713d c241 b8bc 051c 5bbb 5e24 023d
000000f0: b961 bdbb e6b0 97bc 1d96 6d3d fc8c 89bc
00000100: fb43 7f3d 801d 17bd f569 e4bc 36e3 58bd
00000110: f2f2 e13c 8aa6 bfbd 92ac b3bc a14c 30bd
00000120: 4858 8bbc d326 9dbb 48b4 343d d833 86bc
00000130: f882 06bd 723e d83c 1aae 5dbb 73e4 283d
00000140: e8a6 7bbd d754 35bd c3dd b63d 3d8f 943d
00000150: a763 cf3c 03ac 663b 85f3 c6bc 2294 083d
00000160: 979f a53c f0b2 50bd e75c 36bd 8994 acbd
00000170: 06c4 643d 76e6 d43c 0946 17bc 2158 033d
00000180: 15b0 ac3c 1402 e43d 097f 46bb 2e32 a23d
00000190: 875b 293c c24a aebb ea03 003d db59 7cbc
000001a0: 0fc9 223d 987e 64bc f1eb 793c 5c7a 8f3d
000001b0: 9863 9eba 6aa4 213c d77f a4bc 89a5 f43b
000001c0: e81e 063e a7e2 69bc 32a7 f7bc d9a4 45bd
000001d0: 2711 b5bd 25cf bb3c dbe3 c1bc d93c 8fbd
000001e0: a39c d4bc fd26 a3bc 498b 09bd 0172 4ebd
000001f0: 1168 323d e304 22bd b39b e4bc 99cf 813d
00000200: 5d43 ca3d e315 7e3d 1302 99bd e71c 5b3c
00000210: dd15 713d 2ca0 5c3d 76da ab3c 94cc 0abd
00000220: 16b3 38bc 704b 363d c7f7 3d3d b15a 20bd
00000230: b1a5 16bc dc29 183c 5361 223d b6e4 853a
00000240: bbb0 1fbd 2e06 ad3c 2988 16bd ec63 e33b
00000250: 49a6 6e3c 087d 74bc 6f73 b0bb e496 423c
00000260: 6af2 5abb af8f 3b3d 1f59 663d 6060 0a3d
00000270: 8c23 973d 8518 d63c f2de 4c3d d00a d03c
00000280: 5af0 283d 6fda 4d3d 3388 613d 1be1 f13c
00000290: efaa 5e3c 5eca 3a3d 834e 8a3c b5c5 a03d
000002a0: 1e51 573c 5344 8a3b 5c95 e93c 1a5f 703b
000002b0: e4ba c93c 4676 a8bc ad3f f63c bf1c 5cbd
000002c0: b817 81bb 3707 bc3c 514a ae3c d5ce 973d
000002d0: f080 593c 9663 b1bc b27e 283d 6ba6 173d
000002e0: 600e 663d dc3a 12bb 8ed0 7dbc 5ffc f33c
000002f0: 2432 833d f0e1 a73d 0b0a 8bbd ead8 73bd
00000300: 74f3 e13b 7f2b af3c 6a5e 7c3d 7793 18bd
00000310: ca86 a7bd 8054 7a3c bd00 2ebb 7276 c3bc
00000320: 1ac6 583d d1e7 00bd 74a2 0cbd 842b 4cbd
00000330: a6f5 9b3c bc61 0f3c 1b5c 12bd aba5 c3bc
00000340: 9e35 a2bd b7d9 213d 0661 a2bc 0bdf 5ebd
00000350: c0ea 963d b559 ee3c cc76 323d bb39 a0bd
00000360: 13e6 a6bd c2ab 68bc cea6 31bc a94f d13c
00000370: d09a d0bb f468 323d 4a59 ca3c 618c 33bc
00000380: d6e4 92bd db95 83bd 2f71 dabc aee9 353d
00000390: 3a2b 773d b03f 6f3c 28c6 013d f39a 8dbc
000003a0: e722 1a3d 86de c03d 084f 61bb 3441 263b
000003b0: 25bb 00bc a1ab 853d 5493 0e3d b8fe 2dbb
000003c0: 0fa2 84bc dc4a 68bd f272 a23d ef65 6ebb
000003d0: 618c 503d 2072 c0bd fc34 503b 0b05 b43d
000003e0: bcd3 a03c a35a 5d3d aeca 963c bc6e b83c
000003f0: 52ab 30bd 8a60 3e3d 8468 8e3d cc18 13bc
-0.08462616 -0.04201789 0.015909867 0.07574394 0.026815105 -0.07811297 -0.0451014 0.02997164
0.0783492 0.077548236 -0.021763446 0.026203515 0.059525933 0.052903906 -0.010310974 -0.029462337
-0.053892728 0.04268909 0.062275317 0.09712387 -0.06637137 0.006306157 0.00037437002 0.055033483
-0.0035553644 -0.075166255 0.031484917 0.045562517 0.017896783 0.08895995 -0.013808328 0.004007609
0.07328467 0.11085732 0.029721241 0.04592497 -0.008128369 0.11795665 0.041366335 0.06538541
-0.016911238 0.032983217 0.033080544 -0.006916962 0.029936427 0.050419018 0.041988596 0.030566938
0.01758238 0.0039667697 -0.013105682 -0.011722233 0.031001313 -0.05936352 0.08391464 -0.0026356124
0.059068438 -0.022492293 -0.003343345 0.031772964 -0.0057794717 -0.018516969 0.058004487 -0.01679086
0.06232069 -0.036893368 -0.027882555 -0.05295106 0.027581666 -0.09357937 -0.021932874 -0.04304183
-0.01700987 -0.004795888 0.044117242 -0.016382143 -0.032839745 0.026396964 -0.0033825696 0.04123349
-0.06143847 -0.044270363 0.089290164 0.07253883 0.025316073 0.0035197742 -0.024286041 0.033344395
0.0202177 -0.050951898 -0.044522192 -0.08426768 0.055851005 0.025988799 -0.009233006 0.03206647
0.021080056 0.11133209 -0.0030288121 0.07919727 0.010336763 -0.0053189704 0.031253733 -0.015402283
0.039742526 -0.013946198 0.015254007 0.0700576 -0.0012084125 0.0098658595 -0.02008049 0.0074660224
0.13097727 -0.01427523 -0.030231092 -0.048252914 -0.08841162 0.022925923 -0.02366822 -0.06994028
-0.025953596 -0.019916052 -0.0335801 -0.05040169 0.043556277 -0.03955544 -0.027906274 0.06338424
0.0987613 0.06203259 -0.07471099 0.01337359 0.05885874 0.05386369 0.020978194 -0.033886507
-0.011273166 0.044505537 0.046378877 -0.03914899 -0.009194777 0.009287324 0.039643597 0.0010215256
-0.038986903 0.02112111 -0.036750946 0.006939402 0.014566013 -0.014922388 -0.0053848545 0.011876795
-0.003340865 0.045791324 0.056237336 0.033783317 0.07379827 0.026134739 0.050017305 0.02539578
0.041244842 0.050257143 0.05506153 0.029526284 0.013590558 0.04560315 0.01688314 0.078502096
0.013141898 0.0042195707 0.028513603 0.0036677779 0.02462525 -0.02056421 0.03005966 -0.053738352
-0.003939595 0.022952659 0.021275671 0.07412497 0.01327537 -0.021653932 0.04113645 0.037023943
0.056166053 -0.0022312915 -0.015491618 0.029783426 0.06406048 0.08197391 -0.06789025 -0.059533037
0.006895477 0.021383045 0.061613478 -0.03725001 -0.08180006 0.015278935 -0.0026550733 -0.02386019
0.0529233 -0.031471077 -0.034334615 -0.049846187 0.019038033 0.008751329 -0.03573237 -0.023882708
-0.07920383 0.03951427 -0.019821655 -0.05441193 0.07368994 0.02909551 0.043570325 -0.07823511
-0.08149352 -0.0142011065 -0.010842992 0.02555068 -0.0063661113 0.043557122 0.02470078 -0.010958762
-0.07172553 -0.06425067 -0.026665298 0.044412307 0.06034396 0.014602587 0.031683117 -0.0172858
0.03763094 0.09417443 -0.0034379382 0.0025368454 -0.007857119 0.06526876 0.03480847 -0.002654953
-0.016190557 -0.056712016 0.0793208 -0.0036376675 0.050915126 -0.093967676 0.0031769862 0.08790024
0.019632213 0.054041516 0.018407192 0.02251374 -0.043132134 0.046478786 0.069535285 -0.00897808

layer2.0.bias f4 [64]
00000000: 47af 8bbc 9a4a cebc 371a 643c d31f a6bb
00000010: 4dd3 0ebd f800 19bb 9686 c73a 01f6 61bc
00000020: 4cd0 543c dc33 55ba 51c1 f83c 9ebd 07bd
00000030: 6519 b73c 4ca5 01bd decb eebc d072 0c39
00000040: ab41 f0bc 2352 a03c 8dc6 d03c 3301 33bc
00000050: 4be5 0d3b 6f7b fe3c 0799 0b3d ff51 cd3b
00000060: 47ac d1ba a3dd ddbc 8fcd 483c 5471 1bbc
00000070: e1f3 62bb 41b0 da3b 0fcb 433c 8d44 c3bc
00000080: 01eb 51bc 3bd2 8bbc 7ff2 82bc ff63 0c3d
00000090: cbe0 26bb 01a2 76bc 595e de3c f2f8 1ebd
000000a0: 3ccb 45bb 8a10 88bc a960 2d3c 1d79 df3c
000000b0: 9022 163b a94f 233c a204 213c 9d46 0dbc
000000c0: 14cf 853c 40ff 7f3c cad1 81bc 053d 1fbc
000000d0: 6179 623d f74e 163a 2583 813b e802 40ba
000000e0: f2a5 a83c 0030 cb3b c7a4 6fbd 6967 5b3d
000000f0: 4b86 56bd 0e16 acbc 2ecc 85ba a1e8 cabc
-0.017051352 -0.025182057 0.013922266 -0.0050697117 -0.03486948 -0.0023346525 0.0015222605 -0.013791562
0.012989115 -0.0008133033 0.030365618 -0.033139817 0.022350976 -0.03165178 -0.029149946 0.00013394211
-0.029328188 0.019570416 0.025485301 -0.010925579 0.0021651562 0.031064717 0.034081485 0.006265878
-0.0015996777 -0.027083224 0.01225604 -0.009487469 -0.0034630226 0.006673843 0.011950268 -0.023836398
-0.012812377 -0.01706802 -0.015984772 0.03427505 -0.0025463577 -0.015053273 0.027144598 -0.03881163
-0.0030180952 -0.016609449 0.010582128 0.027279431 0.0022908784 0.009967723 0.009827765 -0.008622793
0.016334094 0.015624821 -0.015847106 -0.009719138 0.055291537 0.00057338126 0.003952401 -0.0007324652
0.020586941 0.0062007904 -0.058506753 0.053565416 -0.052374166 -0.02100661 -0.0010207945 -0.02476913

layer2.1.weight f4 [64]
00000000: 6a3e 823f 23d3 7f3f ca81 803f 7a16 773f
00000010: bf9d 803f a879 883f a8c9 7b3f 5ed3 833f
00000020: f028 843f 64f1 783f b77b 833f 89ca 813f
00000030: 8550 7f3f 10ea 763f 6e0f 7f3f 74ff 753f
00000040: bd11 823f 78be 863f 3576 813f 2569 843f
00000050: 9ce3 843f 85d4 883f 6e05 863f 270b 833f
00000060: 2934 793f f879 813f e4dc 853f 220f 863f
00000070: e8c8 843f 7029 7f3f ba9b 853f 1006 7b3f
00000080: e5f2 833f 9aa7 853f e9c1 833f 6e01 893f
00000090: bed5 823f c4c6 803f e0ef 813f 2099 803f
000000a0: 83e5 723f fc16 7b3f a9d0 7e3f 64c9 873f
000000b0: c57f 843f e11e 823f 0624 733f a159 7e3f
000000c0: 56d8 833f 64c3 833f b9d9 863f f72f 833f
000000d0: 67da 8a3f c8a6 7e3f 166a 893f c320 7f3f
000000e0: 0d84 833f 9220 8a3f f372 7d3f 43f4 873f
000000f0: 8949 883f f882 903f a5e5 9a3f 747d 8b3f
1.0175297 0.99931544 1.0039608 0.9651867 1.004814 1.0662127 0.9835458 1.0298879
1.0324993 0.9724333 1.027213 1.0139934 0.9973224 0.964509 0.9963292 0.96092916
1.0161663 1.0526876 1.0114199 1.0344588 1.0381961 1.0689856 1.0470407 1.0237778
0.97345215 1.0115347 1.0458035 1.0473368 1.0373812 0.99672604 1.0438149 0.98056126
1.03085 1.0441773 1.0293552 1.0703561 1.0221479 1.0060658 1.0151329 1.004673
0.9488146 0.98081946 0.9953714 1.0608335 1.0351492 1.0165673 0.9497684 0.9935551
1.0300395 1.0294003 1.0535194 1.0249013 1.0847901 0.9947324 1.07355 0.99659365
1.0274674 1.079119 0.99003524 1.0621418 1.0647441 1.1289968 1.2101332 1.089766

layer2.1.bias f4 [64]
00000000: 039f 5ebc 1d42 ac3b 97fc 5ebd 8224 74bc
00000010: a318 dc3c f747 8f3d 2d6a 39bd 9128 50bc
00000020: cb03 1bbc 78bc 8bbd 0a0f 103d 7422 50ba
00000030: 0893 723c 4f36 8ebd f090 3d3c b967 a0bd
00000040: 22db 413d 444c b93b 81db 3ebc 2b45 af3c
00000050: 1d44 c1bb e016 c4bb e040 373c abd0 14bd
00000060: 0e42 553d da4e 53bd c710 7b3c 5649 353d
00000070: 1d41 64bb 4c4f 13bd baee 88bb eabb bcbd
00000080: 75ef 683c d9a5 b03c 46ed ccbc 670d 3c3c
00000090: def9 19bd 5725 98bd 539a 0cbd afa1 b4bc
000000a0: c151 d23c b10b 2ebd 6b69 e53b 265e c5bc
000000b0: f672 32bd f171 f63b 74c0 b8bc a64b 10bd
000000c0: f490 1c3d b401 b43c 334d 3bbd 4385 c0bc
000000d0: 9c1d 02bc 2875 a0bc bc29 003d 8e5e 3dbd
000000e0: 53cb 79bd 539b debc 7117 60bd 214b 19bc
000000f0: caf3 bb3b 7c40 013c 0b83 0d3c c22e 82bd
-0.013587716 0.0052569048 -0.054440107 -0.014901282 0.026867216 0.06996148 -0.045267273 -0.012704984
-0.0094613535 -0.06823057 0.035170592 -0.0007939704 0.014805563 -0.06943952 0.0115702 -0.078322835
0.047328122 0.0056548435 -0.0116490135 0.021395287 -0.0058980123 -0.005984172 0.011184901 -0.036331814
0.052064948 -0.05158887 0.015323824 0.04425939 -0.003482885 -0.035964295 -0.004178849 -0.09215529
0.014217247 0.021563457 -0.025015485 0.011477805 -0.037591808 -0.07428997 -0.034326863 -0.022049753
0.025673749 -0.04249162 0.007001092 -0.024092745 -0.043566667 0.007520907 -0.022552706 -0.035228394
0.038224176 0.021973468 -0.04572792 -0.023501044 -0.00794163 -0.019587114 0.0312898 -0.046232753
-0.06098492 -0.027173674 -0.054709855 -0.009356291 0.005735849 0.007888909 0.0086372 -0.063565746

layer2.1.running_mean f4 [64]
00000000: 6a6a 5240 a891 8bc0 adaa 8140 7a7b c2bf
00000010: 509b e83f 930e 1fc0 71b6 9ebf 92b2 d7bf
00000020: 363b 27c0 dc5d 9e40 f2d9 02c0 25ff 903f
00000030: 3d2d 88c0 aecb 54bf d69b 7ac0 9f74 df3f
00000040: 6505 b2bf 085e 80c0 846c 12c0 2ca8 efbf
00000050: 2200 a8be 519e 7c3e b4ad e1bf 35a6 fcbf
00000060: 9e73 9e3f 0f54 4740 7156 a13f 6606 50bf
00000070: 5f18 dbbf 4bab f2be b703 aabf 0431 2bc0
00000080: 8b98 efbe afce 443d 26b9 05c0 56d6 2fc0
00000090: 826d 123f e783 aebf ee9f c53f c861 0dc0
000000a0: fa20 02c0 5972 13c0 ffd8 133e 665b 97bf
000000b0: 6afd bfbf 2674 cabf 8910 00be 6afb a3be
000000c0: dfc7 5d3f 4faf 9e3f 074b 653f aa83 1dbf
000000d0: ea3e 85bf 05b7 5ebf 4b93 ad3e aecb d9bf
000000e0: 085d b8bc 4566 a0bb 605a 1fbf e5a2 1d3e
000000f0: 8c9e 94bf 2f03 58be d962 78bf 4b5c 06bf
3.287745 -4.3615303 4.0520844 -1.5193932 1.8172398 -2.4852645 -1.2399427 -1.685137
-2.612989 4.9489574 -2.0445523 1.1327864 -4.2555223 -0.8312329 -3.9157615 1.7457465
-1.3907896 -4.0114784 -2.2878733 -1.8723197 -0.328126 0.24669768 -1.7631135 -1.9738222
1.2379034 3.1145055 1.2604505 -0.81259763 -1.7116812 -0.4739631 -1.3282384 -2.6748667
-0.4679607 0.04804867 -2.0894256 -2.747457 0.57198346 -1.3634003 1.5439432 -2.209093
-2.0332627 -2.3038542 0.14438246 -1.1824768 -1.4999211 -1.5816696 -0.12506308 -0.3202775
0.86633104 1.239725 0.8956761 -0.6152903 -1.0409825 -0.86998016 0.33901438 -1.7015283
-0.022505298 -0.004895004 -0.62247276 0.1539417 -1.1610885 -0.21094964 -0.9702583 -0.5248458

layer2.1.running_var f4 [64]
00000000: baaf 3041 1dd8 4741 a954 0741 0a21 2f41
00000010: c184 1041 db32 ca40 f3db 4c41 d29d df40
00000020: 4f88 2041 8b1a 6041 ca3c 1a41 74c7 9340
00000030: c1df fa40 e180 dd40 5895 0b41 4db9 aa40
00000040: b9d4 cc40 f117 ff40 a8a8 0a41 c1cb a640
00000050: c397 c540 573f 7c40 2f47 e040 9667 b340
00000060: a88f c140 58fe 6c40 5f05 7b40 6a71 9c40
00000070: dff7 6f40 86c3 c740 cb25 8240 03af 8f40
00000080: 63ca 9740 3c2c 7540 ee3b 6740 dbd8 9d40
00000090: a025 3a40 7ae5 7240 e6d0 a440 1b62 5440
000000a0: b996 a040 017d aa40 cb48 4b40 7ba1 9240
000000b0: 5930 3240 72ca 3740 3ae2 1a40 523b 4840
000000c0: 1c2d f33f 1c48 1840 7d5a af3f c998 b33f
000000d0: ba7e 863f eef2 ad3f 498a bb3f 4dfa 0140
000000e0: 454c 1d40 55a2 993f ecf0 aa3f c6a4 843f
000000f0: a7fe 993f b15e 793f 7ade 2c3f 1aac 943f
11.042902 12.490262 8.458169 10.945566 9.032411 6.318708 12.803699 6.988015
10.033278 14.00648 9.639841 4.6180973 7.8398137 6.9219823 8.723961 5.3351197
6.400967 7.9716725 8.666176 5.2123723 6.1747756 3.941366 7.0086894 5.606395
6.048786 3.703024 3.9222028 4.8888445 3.7495039 6.2426176 4.0671134 4.4901137
4.7434554 3.8308249 3.6130328 4.9327216 2.9085464 3.7952561 5.1505003 3.318488
5.018399 5.3277593 3.176318 4.582212 2.784201 2.8717313 2.4200578 3.1286206
1.8998141 2.3794012 1.369949 1.4031001 1.0507424 1.3589761 1.4651576 2.0309021
2.4577801 1.2002665 1.3354774 1.0362785 1.2030839 0.9741011 0.6752697 1.1615021

rnn.weight_ih_l0 f4 [128, 56]
00000000: eb72 8b3d 965d 903d 09fa 8abd 7898 a4bd
00000010: f744 b63c 0c70 133d c125 50bd 19e3 f0bc
00000020: 04cf ac3c 0b79 9bbd 9c52 42ba 098b 0fbe
00000030: 9d58 aabd 04b0 ccbd 568b a03d bb8a aa3d
00000040: 3451 a73d d301 bf3c 40e1 b23a be2b 63bc
00000050: b189 06bd 37ee d03d 41ab 12bb 458d 983d
00000060: 05e4 023e 43cb 6f3d 4d15 b03d 82a2 c6bd
00000070: 7ff1 df3b 33f7 02be 769b 01be fc7a f1bc
00000080: b594 94bd e400 cd3d 2939 93bd e0f4 663d
00000090: e5e4 ba3c 4f11 01be 426b de3c 1166 833d
000000a0: 89fd 7abd 81ee 193c 2130 a23d 5346 823d
000000b0: 3488 8f3d 70e0 13be a1b1 b1bd 7bbc eabc
000000c0: d46f 29be 0501 da3c d6e1 9f3c 3517 9cbd
000000d0: 8112 33bc 5cdf 643d 50fa a6bc 32c5 56bb
000000e0: 7d67 91bc 3ca4 473b a9e5 0dbd 3682 a1bc
000000f0: f5c8 13bd 51f0 00be 876a a03d 53ee d7bc
00000100: 6390 e4ba ceef 923d 5c37 453c 3980 9ebd
00000110: 9953 17be f4cf d3bc 8617 ba3d 5e1a 3fbd
00000120: 8557 debb bb41 6cbc 726d 273d ef54 6bbd
00000130: 1906 733d 0a83 cfbd b6c9 5c3d baad f43b
00000140: 33d6 0a3d 13e1 f93b 9434 f23c f5bd 993d
00000150: a61c 933d 217e 113d ee8e 933b bc27 ccbd
00000160: 54c1 c03d abc1 783b 4e02 bf39 19f7 6f3b
00000170: 0835 96bd 93f6 44bd 4a6a a23d 0a0f ec3d
00000180: 0a60 023e 9d5c cf3d c981 883b f1df 093c
00000190: 02e4 a83c 90d7 113e 50e7 89bc cbb2 c63d
000001a0: ef0b 993d 9b40 1b3c b815 96bb 757b 76bd
000001b0: b4a6 a43b af5b a7bd faf3 88bd 5936 a63d
000001c0: 446d a63d 704b b9bd 7bab 94bc 6edc 49bd
000001d0: 372f 0f3e 9ad4 613d db2a 6cbd 4b6a 773d
000001e0: eebc 363d a3f4 f3bc 7a6c c53c b53e f33d
000001f0: 64c3 72bc b785 99bc c1cc bfbc 6bfd b6bc
00000200: efea 663d c8c4 713d d3cc 883d 1c60 9c3d
00000210: 822b b53c a260 1b3d 3f02 46bd d7b5 bd3c
00000220: 08e6 073d f9b6 34bd 4808 9dbd 9a07 ba3c
00000230: 9bf4 cc3d 0922 3ebc f295 50bd 9440 12bd
00000240: a161 1b3c 1a72 6b3d f23e 1fbd d8ed 64bd
00000250: 993e a8bd 6903 a93d 9eaa bbbd 51f3 57bd
00000260: 56a3 41bd 4fb2 a0bc 946b 9b3d 3e1f 41bd
00000270: f3c6 023e 6fcd f5bd 5b45 5ebb a8f5 b3bd
00000280: c7eb 4d3d 54f5 2c3d fdae d03d a799 54bd
00000290: 6efe 5d3d c0f8 063e 7d10 4fbd 3373 a03d
000002a0: 83c8 a8bd 4a0d 93bd def2 f63d 7719 e03d
000002b0: 0d3b 183c 49d5 c2bd 19e4 be3d e697 0a3d
000002c0: ceaa 75bc 58f8 08bd 5e38 24be 9282 33be
000002d0: 2645 f3bd 4ba2 a9bd d67a ccbd 1d58 f9bc
000002e0: 5608 503d b532 2bbe 1cd5 123d 6172 a2bd
000002f0: 278e a03d 2a3b c43d 974a 66bd f273 23be
00000300: 52a0 0bbe c92c 453d 9d7a 943d b4a8 b8bd
00000310: fdc5 8b3c f66c d9bc 221c 2e3d 7707 1ebd
00000320: ac78 1e3c 99f5 02bd 923a 44bd 37f0 1ebd
00000330: 8aa0 0aba b914 6b3d 1e5c e5bc 504f 143e
00000340: 1cb9 b83d 1fc6 94bd a3bc bebb 3e0f b1bd
00000350: 7ff6 203d e1e4 0d3e 8897 163d b3fb bb3d
00000360: a9fa 9cbc 304a a83d 29e5 8c3c aba1 93bd
00000370: b473 873d 8dfc be3c b533 893d 4eda ecbd
00000380: d926 a9bd 6b6f 44bd e4fa b33b 2093 aabd
00000390: dd20 30bc 903a c5bd aff8 d03c 7091 05bc
000003a0: f1c2 f73c f040 f73c ae81 ffbc d8cd ac3c
000003b0: bb4f 2abd 62a5 133b d36d 0e3d ac52 093d
000003c0: 128c 91ba 4ea7 9cbd 68fd 1e3e 56d7 553d
000003d0: 2964 763d 8b7c 043c 9c56 14bd 8952 3dbd
000003e0: 7276 f53d 8e27 b03c 8cd9 0b3b 275f 1c3c
000003f0: fc37 853d ef9c 7b3d 49dd bbbd dad6 09bc
0.06809028 0.070491 -0.06785972 -0.080368936 0.022249682 0.035995528 -0.050817255 -0.029405164
0.021094806 -0.075914465 -0.00074128225 -0.14017881 -0.08317683 -0.0999451 0.07839076 0.08327242
0.08169785 0.0233163 0.0013647452 -0.013865409 -0.032846157 0.10201686 -0.0022379907 0.0744882
0.12782295 0.058543455 0.08597813 -0.09698965 0.0068342085 -0.12789612 -0.1265696 -0.029477589
-0.07254926 0.100099355 -0.07188637 0.056385875 0.022814224 -0.12604259 0.027150754 0.06415952
-0.061276946 0.009395243 0.07919336 0.063610695 0.070084006 -0.14441085 -0.08676458 -0.028654328
-0.16546565 0.026611814 0.019516867 -0.07621614 -0.010929705 0.055877075 -0.02038303 -0.0032771346
-0.017749542 0.0030462882 -0.03464285 -0.01971541 -0.03608032 -0.12591673 0.078328185 -0.026358759
-0.001743805 0.07174645 0.0120371245 -0.077393 -0.14777984 -0.025855996 0.09086518 -0.046656005
-0.0067853355 -0.014419968 0.04087586 -0.057454046 0.059331987 -0.101324156 0.053903304 0.007466999
0.033895683 0.007625708 0.029566087 0.075069346 0.07183199 0.035520677 0.0045031225 -0.09968516
0.094118744 0.0037957232 0.00036432076 0.0036615788 -0.07334334 -0.048086714 0.07930429 0.11526306
0.12731948 0.101250865 0.004165862 0.008415208 0.020616535 0.14242387 -0.016833931 0.09702071
0.07472979 0.009475852 -0.004580226 -0.06017633 0.0050247554 -0.08171784 -0.0668716 0.08115835
0.081263095 -0.09047592 -0.018148175 -0.049282484 0.13982855 0.055134393 -0.057658058 0.060404103
0.04461377 -0.029779738 0.024099577 0.11877195 -0.014817093 -0.018740518 -0.023413064 -0.022337636
0.056376394 0.059025556 0.06679692 0.07635519 0.022115473 0.037933953 -0.048341986 0.023157997
0.03317836 -0.04411981 -0.07667595 0.022708703 0.10007592 -0.011604794 -0.05092425 -0.035706118
0.009483726 0.057481863 -0.03887839 -0.055890888 -0.082150646 0.082526036 -0.09163402 -0.05272228
-0.04727491 -0.019616274 0.07588878 -0.047148935 0.12771206 -0.12002074 -0.003391585 -0.087870896
0.050273683 0.04222615 0.10189626 -0.051904347 0.05419772 0.13180828 -0.050552834 0.078344725
-0.082413696 -0.07180269 0.12058042 0.10942357 0.009291423 -0.09513337 0.0932085 0.033836268
-0.014994336 -0.033439964 -0.16037127 -0.17530277 -0.118784234 -0.08282908 -0.099843666 -0.030437523
0.0507892 -0.16718562 0.03584777 -0.07931972 0.078396134 0.09581597 -0.05622348 -0.15962198
-0.13635376 0.048138414 0.07249949 -0.090165526 0.017062182 -0.026541214 0.0425073 -0.038581338
0.009672325 -0.0319725 -0.04790742 -0.038803305 -0.00052882044 0.05739281 -0.027998026 0.1448338
0.09019682 -0.07264351 -0.005820827 -0.08645485 0.039297577 0.13856842 0.036765605 0.09178867
-0.019162493 0.08217275 0.017199116 -0.0720857 0.066138655 0.023313785 0.066993155 -0.11565076
-0.08259363 -0.04795782 0.005492555 -0.08328843 -0.010750023 -0.096303105 0.025509207 -0.008152351
0.030244322 0.030182332 -0.031189766 0.021094248 -0.041579943 0.0022528996 0.034772705 0.033526108
-0.0011104366 -0.07649098 0.15526354 0.052207313 0.060154114 0.008086334 -0.03621541 -0.04622129
0.11985482 0.021503236 0.0021339385 0.00954417 0.06504819 0.06142896 -0.09173066 -0.008413041

rnn.weight_hh_l0 f4 [128, 128]
00000000: be89 f1bc fcab adbd 94a0 9cbd 3a97 033e
00000010: 19e1 1c3d e406 ddbd bcd7 4fbc abf4 d53d
00000020: e266 b03d c36f 113e e525 bb3c 7c77 cdbd
00000030: 743a d03c 4f65 37bd aa32 9fbd 2c79 a8bd
00000040: 36c7 65bd af32 d1bd f2e4 923b 838f b9bc
00000050: c821 1bbd 36c2 84bd ca97 78bd 208e 893d
00000060: 86e0 993c 6d83 a53b 6cc6 a5bd 518d 863d
00000070: 86c5 453b 34e1 a23b 38d6 913d 4203 a63d
00000080: e3db 03bc 57f1 0fbb 1558 c2bd 97ee 943c
00000090: 4312 1c3d 58f9 8bbb 5c78 75bc 4b45 c83d
000000a0: acba 0abc 8a04 d1bc 94cb 383d a66a 893d
000000b0: bb57 103d 99d1 5a3d b43f 363d fa21 a43a
000000c0: e059 77bd d197 803c 4d81 b23d c842 73bd
000000d0: edaf 563c ce6f 84bc 45e9 123d 7b9d e7bc
000000e0: fba9 b6bd 8eb5 60bd bc9d a7bc 30ec a53c
000000f0: 6fc2 ec3d 05b5 91bb 090b adbd facd 7f3d
00000100: c0cb cdbc f4ca d13c 8bea 663d f845 f6bc
00000110: 528f 393d e798 cf3c 2241 27bd c53c 463d
00000120: d5a3 4cbc 835a 3d3d 6883 24bd b5c9 fdba
00000130: 25c6 11bd 463a 99bc b998 40bc e5c2 7f3c
00000140: e0f9 0eb7 993a 9b3c 6687 133b 68fe fcbd
00000150: cd34 c5bd 69da 2c3d 18e2 ac3d fddf 8ebd
00000160: 18ea d53c 38fe cf3c 70f5 1abd d544 883d
00000170: 1492 d93b f2ff b63c 4b35 cfbc 5ba4 5ebd
00000180: ebc1 fcbb 8ec9 3abd 8720 773d a293 05bd
00000190: edad 033d 5997 043d 1876 013d 2fff 21bd
000001a0: 339a 303c 18f1 efbd 30ac b63b fb68 d63d
000001b0: 907a 18bd b059 7fbd 5569 a73b b2cd dc3b
000001c0: 275f 543d 32e7 09bc ccaf 1dba 40d9 023e
000001d0: 6ca8 bebd a76f 6e3b 2288 543d 8f94 313c
000001e0: a592 6eba c65e dbbc 16a5 6fbb 100a 22bd
000001f0: bf23 90bd eecf c1bc 826a b33c aeec 043c
00000200: 4ed8 943d 93fd bcbd 4e93 da3d fb7b 08be
00000210: d7e3 103d 3fd3 d8bd e8be 0c3c ccf2 203d
00000220: 3ea8 87bd 1add b7bd 5593 6bbd fdb6 07be
00000230: 7d09 a63a 4d22 e8bb 3f49 8fbc 0268 903c
00000240: e430 a13c 9e3c e03d 47d1 fe3c 714e 56bb
00000250: 636f 3dbc 73f3 e13d 2592 d13c 03b2 0bbd
00000260: f1bf 7c3d 760e e53c 9914 71bd 40b1 87bc
00000270: ac26 3abc 82b3 24bb 38d5 01bd 67d2 3e3c
00000280: e242 1e3d 7e2f e3bd c4b1 06bd db0f c7bd
00000290: efbb 81bd fb74 933d bbc4 103d 169b 9dbd
000002a0: ab66 09bc 8d64 c8bd fef9 703d ea2f 003d
000002b0: cd9c 393d 964c 9bbc 8c1b ef3c 5e24 b23d
000002c0: 724c af3c 85c5 9abd 1bf2 71bd a7bd 613d
000002d0: 4df9 4e3d 3dfb 81bd 2e95 18bd e957 cb3b
000002e0: cfed f6ba 725a 92bd 4339 4c3d fd92 6ebd
000002f0: 0b12 8039 1ab9 38bd 9c1e e63d 04e2 4abd
00000300: 1ffa b8bc 7ce1 efbc 7280 7f3d faa7 5cbd
00000310: fce3 83bd 7d2a 77bd 0bcb 18bd 5eaf a13c
00000320: a8d6 a03d fbb1 94bd 9f99 ffbd 69d9 90bc
00000330: ce7e b63d 0d76 24bd ebf1 e9bd 8270 493d
00000340: 77ba c63c ac5e 483d 51b2 85ba 8090 d13c
00000350: 48ef bcbd 8c76 20bd f3ca 59bd 200f cb3d
00000360: b461 84bc 4a6a fc3d ed38 47bd a6f1 9fbc
00000370: 0886 26bd 8146 9f3b e322 f1bc 71f1 523d
00000380: 1e6f ba3d 105c 74bd 7894 c9bd 90c2 073e
00000390: dfca 8a3d 0d07 7e3c c339 d3bc d8d0 00bd
000003a0: 65bb babd 8ae5 95bd dac5 9dbd 6d97 9bbd
000003b0: 001c 0e3b d719 b8bc dfb8 1d3c c307 8a3d
000003c0: 77e8 073d d894 a1bc 402d af3d 9d26 c43b
000003d0: 4be3 b2bd 8b3d 9e3d 77a6 103e 6fe2 04bd
000003e0: 8f54 8e3d 65be 193b 84f0 e63c 7b1e b1bd
000003f0: db21 223d 114a 32bd fc42 cabd 60c3 2abd
-0.029484626 -0.08480069 -0.07647815 0.12850657 0.038300607 -0.1079233 -0.012685712 0.10447057
0.08613373 0.1420279 0.022845218 -0.100325555 0.025418498 -0.04477435 -0.07773335 -0.08226237
-0.056098185 -0.10214745 0.004482859 -0.02265144 -0.037874013 -0.06482355 -0.060691632 0.06716561
0.018783819 0.0050510676 -0.080944866 0.06569923 0.0030177548 0.004970694 0.07120937 0.0810609
-0.008048031 -0.0021963918 -0.094894566 0.018180175 0.038103353 -0.0042716675 -0.014982309 0.097788416
-0.008467358 -0.02551486 0.045116022 0.06709795 0.035239916 0.053422544 0.044494346 0.0012522333
-0.060388446 0.015697392 0.087160684 -0.05938986 0.013103467 -0.016166594 0.035866994 -0.028273335
-0.0891914 -0.054860644 -0.020460956 0.020254225 0.11560523 -0.004446628 -0.084493704 0.062452294
-0.02512157 0.02560947 0.05637602 -0.03006266 0.045302697 0.025341464 -0.0408336 0.048397798
-0.0124902325 0.046228897 -0.04016438 -0.0019362482 -0.035589356 -0.018704545 -0.011755162 0.015610431
-8.522038e-06 0.01894884 0.0022511124 -0.12353212 -0.096292116 0.04220048 0.084415615 -0.06976316
0.026112601 0.025389776 -0.037831724 0.06653754 0.0066397283 0.022338841 -0.025293967 -0.05435596
-0.0077135465 -0.045602374 0.060333755 -0.032611497 0.03214829 0.0323709 0.031606764 -0.039550003
0.010778951 -0.11715907 0.0055747256 0.10469242 -0.03722626 -0.062341392 0.005108992 0.006738388
0.051848557 -0.008416938 -0.00060152705 0.12778187 -0.09309468 0.0036382468 0.05188764 0.010838642
-0.0009100831 -0.02677859 -0.0036566905 -0.039560378 -0.07038068 -0.023658719 0.021901373 0.008113069
0.07267819 -0.09228053 0.106726274 -0.13328545 0.035373535 -0.10587167 0.0085904375 0.03929405
-0.066238865 -0.08977719 -0.057513554 -0.13253398 0.0012667623 -0.007084167 -0.017490981 0.01762772
0.019676633 0.10949062 0.03110565 -0.0032700563 -0.011562201 0.110327624 0.025582382 -0.034105312
0.061706487 0.027960997 -0.058857534 -0.016564012 -0.011361759 -0.002513141 -0.031697482 0.0116468435
0.038638003 -0.11093043 -0.032884374 -0.09719821 -0.063346736 0.07200047 0.035343867 -0.07695596
-0.008386294 -0.097848035 0.05883216 0.031295694 0.045315553 -0.018957417 0.02918794 0.08698343
0.021398757 -0.07557205 -0.05906878 0.055112507 0.05053072 -0.06346748 -0.037251644 0.006205548
-0.0018839183 -0.07146157 0.049859297 -0.058245648 0.00024427506 -0.0450984 0.11236307 -0.04953195
-0.022580205 -0.029282324 0.062378354 -0.053871132 -0.06439969 -0.060343254 -0.037303012 0.019736942
0.078534424 -0.072605096 -0.12480473 -0.017681794 0.08910905 -0.040151644 -0.11423095 0.04917956
0.024258835 0.04891841 -0.0010200237 0.025581598 -0.09225327 -0.039175555 -0.053172063 0.09914994
-0.01615987 0.123249605 -0.048638273 -0.019524407 -0.040655166 0.0048606996 -0.02943558 0.051499788
0.09103225 -0.05965811 -0.09842771 0.13257813 0.06776976 0.015504611 -0.025784379 -0.03144917
-0.09117774 -0.07319172 -0.07703753 -0.075972416 0.002168417 -0.022473259 0.009626596 0.06739762
0.03318068 -0.019724295 0.08553553 0.0059860484 -0.08734759 0.07726582 0.14126001 -0.032442506
0.06949722 0.0023459431 0.028190859 -0.08648392 0.03958307 -0.043527666 -0.098760575 -0.04169023

rnn.bias_ih_l0 f4 [128]
00000000: 81d5 55bd 6f3e cf3c b0e1 47bd c681 98bd
00000010: 532f 91bd 525d a7bc 5cfe 5b3b c89a dfbc
00000020: bf98 543b d7df fa3c 6e2c dabb 9c1e 973d
00000030: e383 8c3d d548 f3bc 08ca c0bd 462f 1f3d
00000040: 3f4f 383d a4e7 2d3d 8c3b db3d b6e9 8cbd
00000050: 1be7 04bb 1134 babd c3ca dbbd f999 443b
00000060: f473 493d 3aa7 1b3d eb05 9c3d c3a4 773d
00000070: 4e05 c4bd 0847 43bd 3557 75bd 38c0 993d
00000080: 4ce1 21bd 54eb 1d3c 1db9 543c cc0a a0bc
00000090: 9e72 8a3c fe74 b7ba ad40 903d e405 c0bd
000000a0: 244e e43d 17be 2fbd cb15 9bbd a8c2 92bc
000000b0: 79f8 47bd 205c 723d 7c19 cdbc 1e1e bb3b
000000c0: 275b 323d 67dc 11bd 4e1b 57bd 1c83 a5bd
000000d0: 0393 51bd c1e0 513d 3795 583d 898f 1b3d
000000e0: 1697 983d 0f9e ae3c de22 093d b285 9bbd
000000f0: 21d5 813d c1c9 cc3b 6bf1 273a 4b0b 49bc
00000100: 1d3a 00bb f430 943c f3c1 07bd f100 f83c
00000110: 7d35 38bc 4c52 a6bd a04a 55bc 6cd6 b43d
00000120: 4f7c 2b3d b91b 44bd 7dfe 883d eb6f 3c3d
00000130: 1f62 643d 1b83 533d ae9f 2e3d c3cd 0b3d
00000140: ecb0 ac3d f9e9 a73d 266b 71bd 7e77 a7bd
00000150: e739 9fbc e95d 953d 5561 96bc 2176 3c3d
00000160: 002f 523d 6c4c dc3c d4ff 3bbd a61b 293d
00000170: 02cc ca3c 7bd8 8c3c d6fe 443d 0667 fcbd
00000180: 27a5 433d 3851 0abd 900c bebc 8f8b 3ebd
00000190: bfa5 c3bc 77d1 54bd ecca b2bd 34de a3bb
000001a0: 4582 b5bc 22b0 a4bd 2a82 8e3d a764 97bd
000001b0: eb2d b9bc f6df 313d c7f9 82bd 7cab 0cbd
000001c0: 69b0 a2bd 6ba6 99bd f719 8f3d c838 373d
000001d0: 5997 b43c dd3f d33c 569e c93c b85a f8bc
000001e0: fe9d f63d e53c aebd f2a0 07bc c992 4dbd
000001f0: d80a 403d 58ff a4bb 6b51 40bc f428 f53c
-0.052205566 0.025298325 -0.048799217 -0.07446627 -0.070891045 -0.02043024 0.0033568358 -0.027295485
0.0032439677 0.030624313 -0.0066581285 0.07378885 0.06861093 -0.029697815 -0.094135344 0.038863443
0.04499745 0.042457238 0.10704717 -0.06880514 -0.002027935 -0.09091962 -0.10732033 0.0029999001
0.049182847 0.038001277 0.07618316 0.060459863 -0.09571324 -0.047675163 -0.05989762 0.07507366
-0.0395215 0.009638626 0.012983588 -0.019536398 0.016900357 -0.0013996658 0.07043586 -0.093761235
0.11147717 -0.042905893 -0.07572516 -0.017915085 -0.048820946 0.05916989 -0.025036566 0.0057103774
0.04354396 -0.035610583 -0.052516274 -0.08081648 -0.051165592 0.051239733 0.052876677 0.037978683
0.07450692 0.021315603 0.033480518 -0.0759386 0.06339479 0.006249637 0.00064065185 -0.012270759
-0.0019565888 0.018089749 -0.03314395 0.030273886 -0.011243221 -0.08121166 -0.01301828 0.0882996
0.041866597 -0.047878 0.06689165 0.04600517 0.055757638 0.051638704 0.04263275 0.034131777
0.08432183 0.081989236 -0.058940075 -0.08177088 -0.01943679 0.072933026 -0.018356958 0.046011094
0.051314354 0.02689191 -0.045898274 0.041286133 0.024755482 0.01719307 0.048094593 -0.12324338
0.047764923 -0.033768862 -0.02319935 -0.046519812 -0.023882745 -0.051957574 -0.087301105 -0.005000854
-0.022156844 -0.08041407 0.069584206 -0.07392245 -0.022604903 0.043426476 -0.063952975 -0.034343228
-0.07943804 -0.07502445 0.06987374 0.044731885 0.022044824 0.025787288 0.024611633 -0.030316696
0.12041853 -0.085077085 -0.008278118 -0.050188813 0.04688534 -0.005035322 -0.011738162 0.029926755

rnn.bias_hh_l0 f4 [128]
00000000: ab64 603d 060b 813d ae36 5c3d 70ac d43b
00000010: 8b2f f93c e7e0 64bc 0dfc 9abd 612d 263d
00000020: 8bbd dd3b 4733 c03c 277b 62bc f3f3 8f3a
00000030: c021 2a3c 1a4f 9fbd 126e 123c 08d7 26bc
00000040: a48b 92bb 2bfd de3a 91e0 0dbc 89d2 a43d
00000050: e381 95bd 7dde b33c 735f 053d 2db7 93bd
00000060: 03e0 a7bc 035f 76bd 64ac 433d 0287 b0b9
00000070: 32a6 42bd d7a1 7c3c f676 61bd e3dc e4bb
00000080: ec15 a63c 86f2 d9bc c15c 96bd 5973 bbbd
00000090: 2441 8f3d 0387 a33d a113 83bb 4b4c 70bd
000000a0: 56a5 0f3d 4ab9 a2bd a28f 433d 1826 823c
000000b0: a910 393d e5ef dc3c efde 633d 08e8 683c
000000c0: 7f19 03bd 61ba 7dbd 2688 e3bd dc2d 5abd
000000d0: d0c3 bebd a9e9 7bbd a1ff 35bd 08fe bdbd
000000e0: 121c 89bd 0454 463c 09a2 8fbc 0424 adbd
000000f0: acbc 343d d504 c13c 55a3 9f3d 7ae0 0dba
00000100: 20bd d53b 38bc d5bd da67 a0bd 7167 243d
00000110: 1641 8bbd 7553 503d 1d4f c1ba 0813 1b3c
00000120: aab5 36bd 5854 733b 0ee6 b1bc 5dc9 2fbd
00000130: fdd9 24bd 4ec2 453d 3968 a53d d10c 6ebd
00000140: 8cc8 3fbd 7375 62bc 88c0 fa3b bdeb 863c
00000150: 6e78 383d 9e5b 643d 7d91 6dbc 6ca8 36bd
00000160: feb7 173d d6e7 ed3a 5e57 57bb ee2a acbb
00000170: f92f 493d f275 66bd a8f4 bd3c dbcc 1f3d
00000180: 41f1 773d d88a 563c 20b2 a0bd cb22 e3bc
00000190: 1793 363c 86ad 163d 847e e3bc 4afb 5a3b
000001a0: daee 60bd d631 a3bd f2c8 b13d e7b0 683d
000001b0: a3c6 adbd d2b3 afbd abd8 6cbd dab2 823c
000001c0: 8f94 ab3d 768a 8f3d 8bd5 74bd 76b8 853d
000001d0: f4e9 be3c df6f 61bd 73d5 b33d d905 a9bb
000001e0: 5734 993d 6a73 673c d5db acbd 7a8d b5bd
000001f0: 6e0f 12bd 6a3f 6c3c 3a15 323d f439 ab3b
0.054783504 0.06300931 0.053763084 0.0064902827 0.030418178 -0.0139696365 -0.07567606 0.04057062
0.00676698 0.023461951 -0.013823307 0.0010982737 0.010384023 -0.07778759 0.008937376 -0.010183103
-0.004472213 0.0017012706 -0.008659498 0.08047969 -0.073001646 0.021956677 0.03256173 -0.072126724
-0.02049256 -0.060149204 0.047771826 -0.00033669925 -0.047521777 0.015419445 -0.05504509 -0.0069843396
0.020274125 -0.026604902 -0.0734191 -0.0915286 0.069948465 0.07984736 -0.0040001427 -0.05866651
0.035069786 -0.07945497 0.0477444 0.015887305 0.045181904 0.02696986 0.055632528 0.014215477
-0.032006737 -0.061945323 -0.11109953 -0.05326639 -0.09314692 -0.061502133 -0.04443324 -0.09276968
-0.06694807 0.012104992 -0.01753332 -0.08454135 0.044125244 0.023561874 0.07794825 -0.0005412173
0.0065227896 -0.104362905 -0.07832308 0.040137712 -0.067995235 0.05086084 -0.0014748309 0.009464987
-0.044606842 0.003712913 -0.021716144 -0.042916644 -0.040246952 0.048281007 0.080765195 -0.05811769
-0.046822116 -0.013821947 0.007652346 0.01646983 0.045036726 0.055751435 -0.014500019 -0.044594213
0.037040703 0.0018150758 -0.0032858471 -0.005254141 0.049118016 -0.056264825 0.02318795 0.039013725
0.060532812 0.013094626 -0.07846475 -0.027726552 0.011143467 0.03678658 -0.027770288 0.003341394
-0.054915287 -0.0796849 0.086809054 0.056809332 -0.084851526 -0.0857922 -0.05782382 0.015954424
0.08377945 0.07008831 -0.059773963 0.06529324 0.023304917 -0.05503833 0.087809466 -0.005158168
0.07480686 0.014126638 -0.08440367 -0.08864875 -0.035659246 0.014419416 0.043477274 0.0052254144

rnn.weight_ih_l1 f4 [128, 128]
00000000: 8fdf 753c 9df9 62bd fed0 623c b4ef 103c
00000010: 577c debd 1659 903d 6730 103d 2abd c83d
00000020: 6fce 2abc 9be3 66bd d9ef 383d afda cc3d
00000030: e774 b3bd 8283 40bd 7e2c 68bd b7ea 99bb
00000040: 4040 e93d 029c cfbd 5edb ce3d 63b4 97bd
00000050: b837 303c 3cd4 0fbd b081 fabc 884d 32bd
00000060: 88e4 1abd 3624 cabd 95a0 b33c a6bb f0bd
00000070: ef2a 5f3b d75d e93d d940 e5bd 8ffd a8bc
00000080: 1afe 03bb 73ba d4bc 82c6 93bd bc18 63bd
00000090: 9d69 3d3c 0f8d 9dbd 4351 ffbd cc7d ba3c
000000a0: 8750 f93c 1a28 9e3d a30e 1ebe fd6c 013c
000000b0: 8b13 343c 2a9b 1d3e 1528 93bd 2de8 96bd
000000c0: 2fb9 7cbc 562d f8bd 0361 be3d caa5 8a3d
000000d0: b00c ddbb b447 9dbd b9a0 293c 931f 3dbd
000000e0: e4ab 27bd 12f5 343c 6d47 dabb dd2d c83c
000000f0: 2d49 dcbc 2a99 f8ba f2f3 23bd b882 eebc
00000100: 2b8d 813d d222 0a3c 625f e1bb 6061 dfbd
00000110: 8396 123d 3078 b13d 5f95 ef3d f44c 1dbd
00000120: df8a 21be 4c86 603b 732a 25bd 3e9f 8fbc
00000130: 62dd 3a3d e6c8 00bd 9d15 043e 3c1f c83d
00000140: f84a eebc daa5 0c3c 1eba 843d a82e 25bd
00000150: 6ef3 9abc 3c53 e43d 6328 be3c 5c39 54bd
00000160: b2b8 c33d a496 9cbd 4d8a f0bd dbcb 453c
00000170: 26b1 093d 1de1 ac3c d59a 25be 2396 1f3d
00000180: c97d 14bc c1a4 df3d 5edb ab3c 35b5 68bd
00000190: 8da3 bfbc 3361 c9bc 745c d9bd 94a5 9fbd
000001a0: da6a 03be 0f19 7c3b be2e 613d afa1 823d
000001b0: e8c8 c3bb c68a 63bd d364 b5bb 09ea 033b
000001c0: 64de c7bc d65f bfbd 841d 60bc 0b18 b23c
000001d0: f031 7dbc 0683 febb 4e2b 053b 5b2d 60bc
000001e0: 274a 50bd 01cc 2d3c b6e6 4a3c a8b7 873d
000001f0: 8661 60bc a4fe d1bb b5ec b73d 1c93 583c
00000200: a4dd 85bd d422 3d3c b650 06bd f0c2 723d
00000210: 6d59 093d e3fa c73d 59a1 3abc 7e02 f2bd
00000220: 0a7c 0fbd 5309 b73d 2e76 a5bd e692 10bd
00000230: ce4b 38bd 3b12 99bb 2041 12bc 6479 133d
00000240: ed2d 3ebd 6316 ab3c 7074 2abd c432 ce3d
00000250: ef38 2f3d 028c 1cbd 4b59 e9bd 6e4e 6ebb
00000260: 9877 ebbd fbd1 0b3b 6ada 80bd 6563 21bd
00000270: da8b a83d 92fb 9b3b 20c2 fd3b ee7a c23c
00000280: a540 f03c 78d1 ccbd 78bf 993d 9bb1 0cbd
00000290: e983 9cbd d3cb d4bd c616 ffbc 5f87 90bd
000002a0: 9f36 86bd 6e28 863d 8b30 403b df7c 95bd
000002b0: 4696 a4bd 5bb7 383d 5744 e33c 6f1c b3bb
000002c0: 3b05 f73c 1ed8 2f3d 190e f0bc 7cea 83bd
000002d0: 8a1a bebc 10ae 0abd a545 8a3c 2402 fe3d
000002e0: 79b3 193b 33d3 a2bd 852b 37bd 1069 a2bb
000002f0: 7cca 6e3d 7861 bd3c 5fa6 cebb fbd7 29bc
00000300: 271e 4a3a 5bd2 ddbc 3b4c abbd 5661 9dbd
00000310: 9a0c 203d 4da9 5a3b 7273 ecbc be5f 103d
00000320: c758 c6bb 013d bdbd 2867 34bd 65f0 1c3c
00000330: 157c bfbc e9f1 08bd 483c 113d 888c a0bb
00000340: d8c6 8fbd b7b7 ba3d 32cf 0a3d 7b9b bb3d
00000350: ad5f 8cbc c03b 1d3c fc30 0a3d 1db9 f7bd
00000360: 1ac3 3a3d 3c90 b33d 8535 cf3d 5ba0 183d
00000370: cf10 663d 4615 503d 7c44 25bd 306f 843d
00000380: 3f29 3c3b 0c1a dc3c 2497 0d3d 8a68 04bd
00000390: edcb 833d 70ac f53b 75d3 70bc 0581 7ebd
000003a0: 9525 23be 6742 aebd e2ab bf3b 396b 693d
000003b0: c1cd c93c 771b 0dbd fc53 c73d f37e 73bd
000003c0: c695 213b 205f e7ba 551c ca3d 97f4 18bd
000003d0: c0e2 c5bc c09c 40bd 654a 84bd ff1b 87bd
000003e0: 1219 f2bd ea69 71bd 1db6 a23d be2e f6bc
000003f0: 7dfb aabd c2e3 593d f2f1 ef3d f1e8 32bd
0.015006914 -0.05541383 0.013843773 0.008846212 -0.1086356 0.07048242 0.03520241 0.09801705
-0.010425194 -0.056369405 0.04515061 0.10002648 -0.08762532 -0.047000416 -0.056683056 -0.0046971696
0.11389208 -0.10137178 0.10100435 -0.07407453 0.010755472 -0.03511451 -0.030579418 -0.04353097
-0.0378156 -0.09870188 0.021927157 -0.11754541 0.003405269 0.11394852 -0.11194009 -0.020628719
-0.002014047 -0.025967812 -0.07215597 -0.05544351 0.011560825 -0.076929204 -0.12466671 0.022765063
0.030433906 0.077224925 -0.15435271 0.00789952 0.0109909875 0.15391222 -0.071853794 -0.07368503
-0.015425011 -0.12118022 0.09295847 0.06769903 -0.0067458972 -0.07679692 0.010353261 -0.04617269
-0.040935412 0.011044757 -0.0066613466 0.024435932 -0.026890362 -0.0018966545 -0.040027566 -0.029115066
0.06325754 0.008431153 -0.0068778256 -0.10907245 0.03578807 0.08665502 0.11698412 -0.038403466
-0.15775631 0.0034259735 -0.040323686 -0.017531987 0.045621283 -0.03144159 0.1289887 0.097715825
-0.029088482 0.008584464 0.064808115 -0.040327698 -0.018914904 0.11148688 0.023212617 -0.051812515
0.09556712 -0.0764592 -0.11745129 0.012072529 0.033616208 0.021103436 -0.16172345 0.03896154
-0.009063193 0.10920096 0.020978626 -0.056813437 -0.023393417 -0.024582481 -0.10613337 -0.077952534
-0.1283373 0.0038467085 0.054976217 0.06378495 -0.0059748776 -0.055552267 -0.005535701 0.002012851
-0.024398036 -0.09344451 -0.013678912 0.02173998 -0.015453801 -0.007767084 0.002032 -0.013682689
-0.050851967 0.01060772 0.012384107 0.066268265 -0.013695126 -0.0064085294 0.08980695 0.013218667
-0.06536415 0.011543948 -0.032791816 0.059267938 0.03353255 0.0976465 -0.011391007 -0.118168816
-0.035030402 0.08937325 -0.080791816 -0.035296343 -0.044994168 -0.0046713627 -0.00892666 0.03600444
-0.046430517 0.020884698 -0.04161495 0.100682765 0.042778905 -0.03821946 -0.113939844 -0.0036362666
-0.1149742 0.0021334875 -0.06291659 -0.03940143 0.082297996 0.004760214 0.007744089 0.023740258
0.0293277 -0.100008905 0.07507223 -0.034349065 -0.07642347 -0.10390439 -0.031138789 -0.0705707
-0.06553387 0.0655068 0.002932581 -0.07299208 -0.08036475 0.045096736 0.027742548 -0.005466036
0.030153861 0.042930715 -0.029303597 -0.06441209 -0.023206014 -0.033857405 0.016878912 0.12402752
0.0023452921 -0.07950439 -0.044719238 -0.004956372 0.058298573 0.023117766 -0.006306454 -0.010366435
0.00077101815 -0.027077844 -0.08364149 -0.07684581 0.039074518 0.0033365071 -0.028863642 0.035247557
-0.0060530636 -0.09240151 -0.04404369 0.009578799 -0.023374597 -0.03343383 0.03545788 -0.004899565
-0.07020348 0.09117072 0.033889003 0.09160515 -0.017135466 0.009596765 0.03373812 -0.120958544
0.04559622 0.08767745 0.1011763 0.037262302 0.056168374 0.050801538 -0.040348515 0.0646652
0.0028711108 0.026867889 0.034567967 -0.03232626 0.0643538 0.007497363 -0.014698853 -0.06213476
-0.15932305 -0.08508759 0.0058493474 0.05698702 0.024634244 -0.03445002 0.097328156 -0.05944724
0.0024655922 -0.0017652251 0.09868685 -0.037342634 -0.024155974 -0.04702449 -0.06459502 -0.06597137
-0.11821188 -0.0589389 0.079448916 -0.030051585 -0.08348749 0.053195722 0.11716069 -0.04367918
